final_model.ckpt (torch, 675451 bytes, 14 tensors)

lstm.weight_ih_l0 f8 [256, 1]
00000000: 550f f57e bb3b c3bf dba3 7090 e352 c43f
00000010: c108 4090 90c7 c63f 3301 4967 a71b c53f
00000020: 7b34 b1f7 bdeb c33f 66f0 0e64 0cbe b33f
00000030: a37d 6b9c d264 b43f 89a3 7df6 10bf 933f
00000040: a61a b18d 4606 c23f cb40 a430 1aff aa3f
00000050: f065 727e dc18 9f3f 2d86 a0c1 36a0 bc3f
00000060: 6629 ff0f 7b50 9f3f e3c3 e67d 3595 8e3f
00000070: 6da1 d0cd 4d3e 9fbf 839e 9779 00c8 b03f
00000080: 8ab4 7711 2047 9abf a854 d37c c478 c1bf
00000090: 98ac 2d6f aada c33f 6e09 88d7 f98f c0bf
000000a0: c295 a969 985c a0bf 0f61 eb93 68d9 a93f
000000b0: 9df4 c51d f88a b33f 59c8 3d10 ca88 7c3f
000000c0: 0abb 0bea 414a 9f3f 8f8d b04b b384 c1bf
000000d0: 9059 5cfb 8453 943f 5000 01e4 7272 c13f
000000e0: 95f0 5422 f960 c0bf 7fb3 63bc 4289 c13f
000000f0: 8596 b9ec 8554 b2bf beab 5ea7 575f acbf
00000100: 15ff 7428 1cf4 bd3f 9517 c187 0f57 a03f
00000110: 5e33 8801 47f1 b13f 3f05 7df7 f614 af3f
00000120: bb5b 76a7 8654 c43f c158 9350 4bee 98bf
00000130: 9bb2 51df 4f19 c53f 9bd5 ee9a fb0a b63f
00000140: ad98 f1ab e822 a7bf 1b15 617d 10d4 82bf
00000150: fe9e bd49 f1bf bd3f 8035 89f8 322f ab3f
00000160: e1b6 036b 1e38 a53f a01f ea93 acc4 c03f
00000170: c176 8cbe a3f6 c4bf 1202 c302 8b16 bc3f
00000180: cebe 6ed2 a42c aabf be51 3669 1847 bd3f
00000190: 6d96 1936 da5b b83f 5401 6eec 8702 a63f
000001a0: d704 f8c8 05dc 7f3f f75d e97b 78cf b1bf
000001b0: ab1e abcb 47ac bbbf 184b 8f94 6ce5 20bf
000001c0: 3a82 27bb 6b32 a2bf 0d19 f24b ded2 b9bf
000001d0: 57bf 87bd c79a a3bf 0bf2 baed 43c8 c33f
000001e0: 86b2 3805 b252 ac3f 91cc 8368 1e8d af3f
000001f0: 7eb9 41fe 3ab0 c3bf a6f3 e74e a210 943f
00000200: a301 2257 b7f4 b23f 991e cd36 f238 a1bf
00000210: 3a18 1cca 0af3 b43f 2546 aea8 9056 c33f
00000220: 3551 5f9d 578f 9cbf 69b6 0d21 53ee b33f
00000230: f9fc 2677 2375 b83f 14d9 1031 e607 abbf
00000240: a8c6 28e5 def8 92bf b140 5631 bc55 bf3f
00000250: a4cc 89c2 d4c1 bebf 7375 a61e 87f3 b73f
00000260: 23af 9617 4096 c43f d1d0 cdd8 be90 bf3f
00000270: 26ba 0b58 63a1 c2bf 1dc5 747f 833b a93f
00000280: 5141 d20e da6f a9bf 0588 7100 0801 9fbf
00000290: b6b3 ebc5 840b c43f e6f1 97c3 b6ce bbbf
000002a0: 8f4c f247 7466 abbf 2e4a 860c 6364 bb3f
000002b0: 6f8a f2f6 212d 653f 08e4 8dff df8c c13f
000002c0: 78c0 2c7b fe3f b1bf 5e18 6efd cde8 b0bf
000002d0: 02f0 199e 2a3e b43f 2e2a c4e8 1f9f af3f
000002e0: cb21 c23b e2ef b2bf f94a 5feb 71ec 96bf
000002f0: 58a3 fa62 4f58 bebf fea3 55d0 553a ae3f
00000300: 474f 91cd 535a ad3f c14d 8a81 64f5 b9bf
00000310: 30eb bab4 931b b0bf 0af3 9793 fce9 aabf
00000320: b8d0 6f64 96c9 96bf 8a09 33f4 df98 9abf
00000330: eac4 8102 2777 be3f db25 1489 8a8b c33f
00000340: 7acc 6b15 65d6 b1bf 1a76 62ac 21a8 89bf
00000350: 58df f6b2 1d94 6e3f d771 c346 3210 a5bf
00000360: abe1 5f45 b709 c1bf 69e7 1268 aef1 9b3f
00000370: 46fe 6d6d 2841 b13f 7183 7d66 9897 c0bf
00000380: 75cf 23f7 a44c 963f b3a2 1b22 b340 c43f
00000390: 7965 5c4c 2741 c23f 8218 06dd c25d a23f
000003a0: 396a a252 06c6 c0bf 0a2c 60ed 1ec8 b7bf
000003b0: f2a9 343e 165a b1bf 1446 255a c4a6 b1bf
000003c0: 105b 4e70 f647 b0bf 46aa c206 8f74 a3bf
000003d0: 62f0 a7c8 2de6 c63f f0f8 edb8 8cac c23f
000003e0: 18f5 522d f507 b73f 52f4 56fb 5deb a2bf
000003f0: 2558 b434 12ec c1bf e3e9 35e6 9ad2 bdbf
00000400: 7a32 bc95 c4cb ca3f c511 898c 072b bfbf
00000410: 65ae 2a7c cd61 bcbf a64d 33ba e53a bb3f
00000420: e800 4cdb 83c2 b7bf 542d 3772 7ad1 c03f
00000430: 7ca7 e6b8 aabb bcbf b99a 5481 2d39 bb3f
00000440: 6dc0 8ed5 b695 c3bf 83e7 596c 7be2 853f
00000450: f52b 0736 35f4 c3bf c765 9c26 d8e6 ba3f
00000460: b979 405e dfb9 c3bf d602 366c 3385 c13f
00000470: 39fc 1cb3 327e 593f d9c7 c1d3 bd91 bcbf
00000480: 7a3f e57d 0d62 b8bf 63ea dfe7 8ae4 c3bf
00000490: b9e4 8855 9199 b4bf 09df 8e54 48b8 c8bf
000004a0: dee1 41c3 b8e4 aa3f aa37 cfa4 1e4e c43f
000004b0: a89c d683 329c b3bf 5883 f1ec 6a50 c0bf
000004c0: 4bc8 7789 3723 9e3f efb0 1525 f696 c93f
000004d0: 8a25 88de 9a8a adbf d10d 676b 2e81 c6bf
000004e0: e8fe d582 4702 9cbf f6d5 255d 08e3 c9bf
000004f0: 52fb 56db 5209 be3f 51dc a963 a300 a2bf
00000500: e3a2 e294 94a4 c5bf aa90 528e e748 76bf
00000510: 90e2 821c 4114 903f 129e a14d f6e9 a93f
00000520: fe5f d5c3 100b c2bf bf09 24ab 0629 b63f
00000530: 8bba 2928 0c0e bfbf 56b3 eb25 9232 c2bf
00000540: 9126 eb84 4160 b0bf bc49 8a72 7e0f a6bf
00000550: c576 17a5 f6ee b43f 70fd 9bd4 f025 c53f
00000560: d8eb 6b62 70f7 7cbf f096 3dfd 4b2e b2bf
00000570: 4853 e544 9f7e c23f 581e 5d7e 365f 98bf
00000580: 9f72 4df2 ec4f af3f 2c5b 9c8b d90e b7bf
00000590: 3e74 af3e d27a c53f 21b6 ae9b 853c c5bf
000005a0: 4b9d 7510 1c0d c43f 65b6 e251 9570 bdbf
000005b0: 9812 bf1f d2bc c23f 3c3a 8d8d 7fe1 903f
000005c0: 989c 23ba c263 b23f 9ea7 07fc a4b4 b9bf
000005d0: 4ca6 fe94 79fb b8bf c1f8 d6a8 cb14 bbbf
000005e0: 9daa f77f d12b 9a3f 20b1 1b90 45f0 b0bf
000005f0: e15c 6629 0fb8 b1bf 16bb 0ec1 8b4b c0bf
00000600: 2205 19a2 2d8f b13f 6b01 26d1 b774 c33f
00000610: 9b20 4268 9579 b43f dd38 a6a1 e3d1 a33f
00000620: e8b5 5a3f 1d0d c53f 7bf9 64bf 7298 b33f
00000630: 1ce2 46e4 9834 b1bf 0057 6ad9 9fb4 bfbf
00000640: c984 9c23 d5f0 c3bf e511 8239 2af3 afbf
00000650: 51bb 2334 497a b1bf 74fc 6e1f 7dec 8e3f
00000660: 25f7 8506 3ff3 b4bf ccf1 44f8 0b4d a23f
00000670: 3035 565b 102c c1bf 4824 d60f 9394 9dbf
00000680: 27d2 6812 2434 8abf 7940 a3fb 3eb6 adbf
00000690: b045 b2a6 84f6 a93f eee6 5d66 24a4 b1bf
000006a0: 042c 72a5 8abd b23f ac4e 8f75 b290 c0bf
000006b0: 7624 3ff2 e8e9 a1bf 37b4 7067 3b66 c3bf
000006c0: 2bbc c390 8fbb c2bf 3c2a 0f9a 62c8 a8bf
000006d0: eb12 5247 50aa c3bf ddf1 5275 ff62 a53f
000006e0: fe5e 4ab0 701b b5bf 68fa 87d5 2cd2 b5bf
000006f0: f025 e029 97c0 babf 65c4 9471 3e56 a5bf
00000700: e0c2 7b64 2e4b c0bf 710d 128f e11a a63f
00000710: 5cd4 b16e 748e b03f 3181 c5eb 4eaf a1bf
00000720: 4472 0d0c f1da c1bf b8a9 fa83 0c45 b73f
00000730: 9724 6fc6 fc3a bfbf dc53 9796 b8d9 c1bf
00000740: 6c05 a2bb 7a63 c13f c4a6 4fb0 548b aabf
00000750: ae83 aeef 6be7 96bf d82f 34cc 88d1 bdbf
00000760: 5af2 a95c 2e3b a13f d272 c35f 92ec b4bf
00000770: 8398 314b d251 bc3f 365a 1730 d0b8 a53f
00000780: 2243 f326 435b bd3f 50e3 6bf8 7de3 c2bf
00000790: 5736 7bbf edfc c03f a48a 1f91 6b21 c0bf
000007a0: 4e3b fae6 5541 9abf 88e2 8207 2ce1 babf
000007b0: a022 3c6f a185 b5bf d2da 4a5c d360 8dbf
000007c0: 0147 d35e 640c b43f 3af2 fd90 90a1 babf
000007d0: 1471 6292 f3c0 b1bf 6d35 bbc3 4ba3 983f
000007e0: 3d15 54d1 a03b b93f 935c b844 282c c5bf
000007f0: 8df7 ef4a 91be b1bf f03d 9be4 3119 91bf
-0.15026038836560454 0.15877956917509448 0.1779652313562732 0.16490643065663732 0.15563177675577208 0.07711865847426366 0.07966343230099553 0.01928354744396502
0.14081651609941054 0.05272752612847994 0.03036827585001406 0.11181966998312794 0.030580447055208813 0.01493303099127447 -0.030511108099888263 0.06555178612290473
-0.025661946359765632 -0.13649803252215986 0.1551106493819574 -0.12939379714959948 -0.03195644655060505 0.05048682027489992 0.07633925177465746 0.006966389952014118
0.03055670729639374 -0.1368621940210741 0.019849851457445278 0.1363051999378535 -0.12795938660008646 0.1370013637419127 -0.0716022208158283 -0.05541490476692655
0.11700607288093708 0.03191422016293114 0.07008785045054597 0.0607068230733696 0.15882952858802732 -0.02434652022642392 0.1648349609780738 0.08610508472960136
-0.045188208569741796 -0.009193543268461604 0.11621006059942471 0.05309447559248337 0.04144377762155017 0.1310020181883802 -0.16377684406409368 0.10971897904801889
-0.05112185543782531 0.11436607903153281 0.09515155621337508 0.04298805962662536 0.0077781892755421555 -0.06957200074372581 -0.10809754106878226 -0.00012890768473868756
-0.03554093036268964 -0.10087384561675013 -0.03829025448419426 0.15454911334917684 0.05531841577280709 0.06162352586570664 -0.15381562628631323 0.019594703737300677
0.07404657246843853 -0.03363758963547276 0.0818335288459772 0.15107925640454414 -0.02789055727028363 0.07785529667827408 0.09553739222518577 -0.052794641007880255
-0.018527491318485773 0.12240196423067819 -0.12014512776822756 0.09355968950554487 0.1608352770975837 0.12330239098611463 -0.14555017279731536 0.049282178219423246
-0.04968148642467674 -0.03027737143236921 0.15660152114960874 -0.10862295413239273 -0.05351603868725718 0.10700053268218632 0.0025849974986880612 0.13711166361079585
-0.06738272196958117 -0.06605231702096279 0.07907358512778731 0.06176089970002284 -0.07397283514922674 -0.022386341086369808 -0.11853500524979432 0.05903881233354723
0.057329768031790844 -0.10140064394572958 -0.06292079126698691 -0.05256642629317383 -0.02225337017075965 -0.02597379615759502 0.11900562106326942 0.15269595807357814
-0.06967765591598321 -0.012527716706524795 0.003732736593260382 -0.041139193666569866 -0.13310900580814908 0.02728912840095835 0.06740048095343196 -0.12962632183464565
0.021776750168057874 0.15822447934558212 0.14261332729874335 0.035871591072507605 -0.1310432342041439 -0.09289735122017376 -0.06778086680120746 -0.06895091248340918
-0.06359806291434844 -0.037998647284741824 0.1788995008245165 0.14589079885258327 0.08996517521423575 -0.036951958590613856 -0.14001681874714325 -0.1164948284185026
0.20934350310598743 -0.12175032788315494 -0.11086735040105962 0.10636745258243838 -0.09281181434562635 0.13139277054720344 -0.11223856939491655 0.10634121329767766
-0.1530064146768412 0.010685886615863676 -0.15589013231360097 0.1050849050774537 -0.15410987951413604 0.1368774679540567 0.0015559668649556392 -0.11159883899543334
-0.09524616550083734 -0.15541206666951543 -0.08046825731516351 -0.19312385681927705 0.05252625831139189 0.15863402411781397 -0.07660213202199151 -0.1274541527700659
0.029431216969847445 0.1999194794729031 -0.05769809690907397 -0.17581730121865616 -0.027352444992628927 -0.20224098728401402 0.11732976775145446 -0.03516111938090972
-0.16908509511747302 -0.005440620913905439 0.01570226418036441 0.050613114334563516 -0.14096269190008565 0.08656350782624765 -0.12130809765379007 -0.1421683011207288
-0.06396874899942363 -0.0430869593448224 0.08177129297788628 0.16522035962405424 -0.0070719137208880775 -0.07101893360740141 0.14448920120289643 -0.02380070825827682
0.06115665872377928 -0.09007033976045581 0.16781070767220457 -0.16590948201830805 0.1566500740402524 -0.11499913453254747 0.14638735342136466 0.016485207571628843
0.07183472675716229 -0.10041266587327732 -0.09758720290724304 -0.10578606483520316 0.025557778773797158 -0.06616625564828782 -0.06921477089632645 -0.1273054783500462
0.06859097678627227 0.1519994517548285 0.07998021884316346 0.03871070240266914 0.16446271508668464 0.07654492542949314 -0.06720882008711054 -0.12384985979073448
-0.15578712691152521 -0.06240207626345632 -0.06827218554438487 0.015099504014754773 -0.08183664235363304 0.035744070106804665 -0.13415722331812097 -0.0288870790878131
-0.012794763385593445 -0.05803105184315966 0.05070890936725492 -0.068910861007591 0.07320467509468648 -0.12941580524658514 -0.03498771626579693 -0.1515573744849534
-0.14634890144904608 -0.04840381746869979 -0.153635058235657 0.041770918914582934 -0.08244995407073571 -0.08523826802409362 -0.10450119755127907 -0.04167361389625838
-0.12729434877794343 0.04317383643595008 0.06467368795877476 -0.03454062107153034 -0.13949406708242595 0.09089735242984076 -0.12199382633765975 -0.1394568190868587
0.13584837114107573 -0.051844259760242234 -0.02236717844391805 -0.11647849069066696 0.033654640971666 -0.08173479879355774 0.11062349639687068 0.042425638075361524
0.11467380238469763 -0.14756750707581512 0.13271877145455122 -0.12601990305036737 -0.025639860365625204 -0.10499835189228623 -0.08407029119201548 -0.014344836477318355
0.07831408801146368 -0.10402778186648556 -0.06935045551148661 0.02406042463444662 0.0985661040359291 -0.1654100738094014 -0.06931408004308377 -0.016697673395183743

lstm.weight_hh_l0 f8 [256, 64]
00000000: d2ca 6167 c8c2 723f 7565 95d0 d8c4 b83f
00000010: a39a 7d6c 2f74 ac3f 39cd bf04 41a1 a23f
00000020: 62c0 41c5 1b24 b3bf e161 2ba7 70cb 9bbf
00000030: 5be7 0207 e95e babf a796 6024 5506 5dbf
00000040: 17f3 fffb 74f1 98bf f46a d12c 6234 ae3f
00000050: 247b 1729 8864 b0bf c633 4db6 1d53 883f
00000060: e578 1342 acf2 a0bf 52c3 4f22 03ae 95bf
00000070: 8911 8c7d 5ed7 84bf b3a4 90b5 11cc 963f
00000080: f93d 7246 e788 c4bf 8b64 1280 20ba c6bf
00000090: 3b52 7d9e 0c93 bebf 6877 6418 7d89 b0bf
000000a0: 5a82 361d 0685 91bf c692 a276 8e7f 95bf
000000b0: 6daa 37aa 10b7 b6bf bc15 5756 a5a0 c6bf
000000c0: b034 9a7e f268 c03f d94b 6055 4dd8 c83f
000000d0: d437 2540 3fcf 973f 7ab2 cdde a046 c0bf
000000e0: 4e63 6565 64c1 bbbf 446c 706e 123f 923f
000000f0: ce27 6905 819f c33f fa4f 8892 e990 96bf
00000100: a4ae c3fd 5cdd a2bf 81f9 0d31 efdc 993f
00000110: 8ede df14 d0d3 9ebf 4a02 8198 49f4 a33f
00000120: 2053 adb0 90a5 aebf a738 f658 ade1 a6bf
00000130: 2f27 f616 4964 b9bf f123 665e a7c2 c8bf
00000140: fb09 f983 127f c13f 2061 4e6e df41 ca3f
00000150: 9121 5c6d 25ca c03f 0e82 515b 5389 ca3f
00000160: 46d9 0f87 0896 aa3f e554 49b7 fd5a c3bf
00000170: 9e55 25d2 f6a5 c33f 66b7 8a6b f0d6 b63f
00000180: 6309 0f66 21ba adbf 006d db98 e89a c3bf
00000190: c2a3 7088 45a1 b53f 9b23 0f3a 8b04 c5bf
000001a0: f01d ed12 116c 533f 4647 b067 bb68 c9bf
000001b0: 6d4b dc71 743c 723f 8036 c064 a6f0 93bf
000001c0: eb37 67c1 552a c1bf 3af9 916c 339e c4bf
000001d0: 772e f919 6212 b2bf b031 2950 3161 bebf
000001e0: 3cb4 74a5 0a12 c83f f9f2 5522 bd88 c6bf
000001f0: f7fe 373e d86a 8a3f 803f c3df 1e4b a3bf
00000200: 0ea2 f50f 2443 b5bf b9f7 2b39 5ef2 b03f
00000210: 229e 509f b465 b9bf 5774 d28c 8582 c33f
00000220: 4a82 c152 1c96 babf bf11 0604 12f4 c23f
00000230: da22 2411 ec8c c2bf f2f4 f4f4 51b0 ae3f
00000240: 9ff5 1207 5a38 b7bf c67d 9632 a3d7 b5bf
00000250: 381f 1c09 c86a 91bf c09b c93c 77d3 b03f
00000260: 99c1 f4b3 dbd3 b3bf 3326 6184 a6af c13f
00000270: b16d a39e 0e03 a6bf 2b0e 5bcd 1f94 ab3f
00000280: 0298 da88 f80c b2bf 012a 1eb9 13e8 ac3f
00000290: 87d5 f977 f91d ac3f f7c3 849d 1a0e a93f
000002a0: d414 1fea 4c13 c1bf 74e5 c030 d85c a9bf
000002b0: 1747 f3d5 8005 b33f 38a0 b585 5e66 8dbf
000002c0: 1dba 46db 1ac3 55bf 25ca 5ec0 f554 c03f
000002d0: 1ac5 f3d4 7900 993f c22b cd47 095a b13f
000002e0: 7ce6 a50e 93e4 b2bf 90dd f31b 4c13 a63f
000002f0: 868d 85bf 4812 bf3f 65e2 fcfa c0ce be3f
00000300: 39b3 83f6 6be6 c1bf dcaf 1db1 3321 a7bf
00000310: 0554 a84f d8ef b33f f68e e61c d981 b73f
00000320: edac af7a 7ebd b3bf 3a84 7e32 7d18 963f
00000330: 6ee8 f5ad b33b b2bf 6135 ea5a 39ba bbbf
00000340: 0665 03ff f9b5 bfbf 047a 91ee b16a 7abf
00000350: 54a6 88c6 7343 a43f 3d2f 3852 6fb5 9c3f
00000360: dc98 b6b0 01a9 a13f d4ba e3da 41e8 b43f
00000370: e272 6ec0 675f a8bf 7eae 8e52 e817 b7bf
00000380: 58eb 553a 1047 b2bf a708 8992 3f33 b73f
00000390: cef6 73f9 3555 72bf 8cba 4bc0 5420 b8bf
000003a0: f6ea fd6a 628d c23f d4c7 0bcc 9076 6abf
000003b0: 08c2 8730 20dd c43f 6e4e 6a69 b348 b83f
000003c0: 9ffc d326 99b2 adbf 9551 b531 70fa b43f
000003d0: 0f3f 5e9e 4f85 a4bf 4372 06fa 5ac0 b4bf
000003e0: d787 2d9a 9d32 b43f 5b75 b810 aa7a b4bf
000003f0: adb3 580c 3520 c2bf 26b5 45eb 3a10 b03f
00000400: d255 cd77 520f c43f b91e 6815 2fe6 98bf
00000410: 6525 368a 1e6c b3bf e6dc 9c4f bf86 9fbf
00000420: 669b 836c 0aff c5bf 0bf4 45a7 745d 813f
00000430: 279c 4a20 d83b a6bf f3c5 59ab 3061 b33f
00000440: e343 d8c2 8439 bcbf 0100 37e2 0a19 b23f
00000450: 1700 04ef 4ac0 c1bf d694 3961 d2e6 90bf
00000460: 130e 648d 598f a4bf 3ed3 83d0 3e15 ba3f
00000470: 3ae3 b759 0585 b13f cf6c 7196 043e c1bf
00000480: 14b5 dfdf bee7 963f 327b 8737 fb53 b8bf
00000490: 3da1 ef08 1162 a83f f688 40f1 180c c1bf
000004a0: 07d9 b7b5 3a32 793f 3c6e ef26 77e7 b53f
000004b0: 6fd1 05af a66a 96bf 0551 8ad2 6c29 8abf
000004c0: 76a1 dd79 0e80 8ebf 8bbd f05e bb74 9cbf
000004d0: 0ffb 7626 0c10 9cbf 327a 724a 0ff8 bebf
000004e0: b752 55e3 d1be 8e3f 0cf6 ee6a c26a a03f
000004f0: 5fb6 3f42 320d a23f 984b 77e4 2f66 a13f
00000500: 97d3 cd45 2290 bcbf d236 f07b 3886 c4bf
00000510: 4bc8 6fbf 9618 5abf 344e e8f8 07fd c13f
00000520: cc1a 2612 abbd 9ebf 645c d5bd a48c a83f
00000530: fd97 3d79 ad40 c2bf f0a5 d54d 9902 c2bf
00000540: f347 61e3 d2b8 7b3f 2b59 adac 3ee0 afbf
00000550: 4f18 3b81 b9f1 953f 7cb3 64a1 f17d c33f
00000560: de1f 3eed 890f 84bf 66dc 1350 46f3 c5bf
00000570: 2d7c f055 fb39 c13f 247e 57fc e89b 963f
00000580: 5898 eb1e 536e a3bf 44b9 213f b411 a23f
00000590: 37ef 98e1 8865 c03f 301f 86cf 6c22 c0bf
000005a0: 1cfe dc3e 917b 94bf d1fe 2c5e 1fb4 b2bf
000005b0: 52b4 6ffa 7d13 94bf d316 2a3f ed9b 86bf
000005c0: 78e0 5d5c a28c 903f 04c6 ba36 1ab7 b2bf
000005d0: ddd0 ef19 c4c0 ad3f 6026 6a25 d2d5 a53f
000005e0: dff0 7c99 62dc a3bf 36ec 17a4 d60d c8bf
000005f0: 1102 7550 2ae9 c5bf 09af 137a 9e6b a5bf
00000600: 9bcc 9383 d8ca c03f ab05 1055 6446 a53f
00000610: 3857 7817 0a2a c2bf 4378 df7e d39b 9b3f
00000620: 3942 ef20 b9d3 75bf 6de0 cf8e d810 763f
00000630: b2f1 4cf3 9a46 c3bf 777c b5ab 8fb4 b43f
00000640: 795d c3d0 0957 a03f 6009 39d0 4d9b c53f
00000650: 4a4c 7b68 d2c0 bdbf c687 675c 9ba2 b03f
00000660: 77c1 5d1d 00bc a03f 1a86 6c0b c687 b3bf
00000670: 249d ab70 0442 83bf 1e6a 5f66 129e 953f
00000680: d3a9 003e 3ef1 b13f 8daa 1d01 c681 acbf
00000690: 7367 31e3 f78a b5bf b6ba 38b8 a8c1 a3bf
000006a0: 89f2 143e 0386 8abf 57a9 273c 584c bb3f
000006b0: 9cec 59a0 da91 a4bf b6ce 9bb1 b35e a3bf
000006c0: a4fc b65b f743 bbbf 0b73 7458 c777 b13f
000006d0: 6390 eff5 720a a6bf 28bb b36c 2862 84bf
000006e0: 8fcf 3759 a31f bbbf c771 1732 9385 aebf
000006f0: c7de 4461 44bb b63f b130 af9b 29ee c33f
00000700: 1392 1665 a5c2 74bf da77 bb83 0e2d a5bf
00000710: cd53 27e8 5dc7 aebf 433b 2322 39ae ba3f
00000720: 3827 e48c a517 893f de13 1fc9 89fb b03f
00000730: e66e de52 f893 a53f 489c 8b26 1644 c2bf
00000740: c520 7d56 8109 bfbf b155 c6ca db92 923f
00000750: 24e5 0f23 d849 943f 4882 4345 f473 c13f
00000760: c1fb b863 645c a0bf 423a 03cb aecd c3bf
00000770: db17 4587 bfb5 c43f e889 3d49 81d8 b0bf
00000780: 4683 2cd9 c22e bc3f 3ed7 9560 92ed a2bf
00000790: d777 42dd 6687 b3bf 45b5 44f7 dc30 abbf
000007a0: ba2e 7b15 4d18 a0bf 920d 2e96 692f 7abf
000007b0: 94e0 7b19 a2da b03f c8e3 1cb3 f1fc b2bf
000007c0: 7ffb 4713 79ee 96bf 3f13 7411 8e38 c4bf
000007d0: e22c b934 8607 9abf d68b ff24 a801 adbf
000007e0: 49bc 9b42 d2d0 afbf d076 76d0 0faf b0bf
000007f0: 56f2 9f3a 77f5 b9bf 2f07 f6af b293 b13f
0.00458029062984862 0.09675364582417052 0.05557392310475009 0.03638652022336903 -0.07476972165909637 -0.02714324970551896 -0.1030107156865631 -0.0017715293374832937
-0.024358585244033195 0.05899340436072534 -0.0640339947053517 0.01187728130903477 -0.033101447168279376 -0.021171616524898802 -0.01017640896453355 0.022262837130402512
-0.16042796077498148 -0.1775551438666166 -0.11943129414914548 -0.06459791036146856 -0.01710900834371141 -0.020994401923092786 -0.08873085170459101 -0.1767775222380531
0.12820273572689223 0.19410101574666674 0.023251522340892297 -0.1271554077060449 -0.10841968036164681 0.017818725577040576 0.1533051754398102 -0.022037171906120513
-0.0368451175471283 0.025256860131315676 -0.03010487677963041 0.038973140588954694 -0.05985691219999567 -0.044690529927821125 -0.09918648539146767 -0.19344036206555829
0.13669043964371483 0.20513527761500772 0.13116901244962922 0.2073158450975971 0.051925913321542214 -0.15121432733091136 0.15350232373263578 0.0892172110131618
-0.058060687740652005 -0.15316493476607462 0.08449205952696473 -0.16420116743964006 0.0011854330766299902 -0.19850866854590715 0.004452185499547717 -0.01947269430097842
-0.1341044611312435 -0.16107790757446044 -0.07059300550570834 -0.1186705418305738 0.18805058554554133 -0.1760479371695494 0.012899102591290552 -0.03768249970892068
-0.083055738350261 0.06619824310106893 -0.09920815362476579 0.1524207055671549 -0.10385300655753685 0.1480734367033971 -0.14492560231180712 0.05993896594234539
-0.09070360825258782 -0.08532161698393911 -0.01700890117265816 0.06572671159811616 -0.07745144980868303 0.13817292655794375 -0.042992073884046696 0.05386447316916717
-0.07051041928443172 0.05645810732592694 0.054916187186715475 0.04893572972139986 -0.13340150291165875 -0.04953647227416527 0.07430272315403062 -0.014355410056580906
-0.0013282549162841946 0.12759277241782843 0.024415877935955434 0.06778009417500555 -0.07380026919954646 0.043115976726706084 0.12137274432966735 0.12034231307632977
-0.13984441315496968 -0.04517518555698505 0.07787849373592344 0.09182507472592846 -0.07711019988316865 0.0215777933186738 -0.0712234782894556 -0.10831030339814653
-0.1238704917517631 -0.006449408575547103 0.039577119813043155 0.02803586901977372 0.03449254305023583 0.08166896432860976 -0.047602884521642755 -0.09020854964790634
-0.0713968412800744 0.09062573745271384 -0.004475794637299036 -0.09424333281251956 0.14493971084797125 -0.0032303646151996355 0.16299822206157466 0.09485932658781746
-0.05800322150207048 0.08194638455944976 -0.04007958229260399 -0.0810601101315536 0.07889733327968372 -0.07999670894829107 -0.14160788634162938 0.06274765247299693
0.15671759462081397 -0.02431558197170489 -0.07586851953796765 -0.030787457689453478 -0.17184572504558132 0.00847903380849326 -0.04342532533819848 0.07570175345770007
-0.11025266415550976 0.07069461844275794 -0.13868080778775102 -0.01650551527418006 -0.04015617228472137 0.10188667860695674 0.06843598785770846 -0.13470513673642023
0.02236841432015975 -0.09503145318693099 0.0476231883438367 -0.13318168430220795 0.006151418052004815 0.0855631322914911 -0.02189121669057797 -0.01277432458417894
-0.014892685979888336 -0.027789046926213905 -0.02740496620912852 -0.12097259109075578 0.01501239752784876 0.03206450991954676 0.035256929957409915 0.033982750548282314
-0.11157430843543491 -0.16034608890225016 -0.0015927765032271053 0.14053439763721232 -0.03002040193816917 0.04794802491476771 -0.14259880466414634 -0.1407043104220942
0.006768058568995971 -0.06225772722125308 0.021429918778061382 0.15228100185904825 -0.00979526286370452 -0.17148665342367336 0.13458196350345145 0.022079124833792943
-0.03795108559079158 0.03529132147456207 0.12809859290597966 -0.12605056889537414 -0.020002622091167863 -0.0730609517022416 -0.01960560647050997 -0.01103959416401371
0.016161476981750827 -0.07310642086192592 0.05811131302462667 0.04264694887849596 -0.03879078029282978 -0.18792231571555512 -0.17117813995902556 -0.04183669319340139
0.13119036125826686 0.04155267275201465 -0.14190794130325357 0.026961617106160195 -0.005328868063728503 0.0053871592799553504 -0.15059220199499418 0.08088014547455367
0.031914049848348953 0.16880200068596718 -0.11622347880192865 0.06498118406264472 0.0326843295905545 -0.07629049090294196 -0.009403261841227258 0.021110808847746403
0.07008732808814182 -0.05567759288426997 -0.0841517381353734 -0.038586876380909116 -0.012950921375357598 0.10663367718340076 -0.04017527778065608 -0.03783189337800989
-0.10650583256846119 0.06823392781775454 -0.043048470040759644 -0.00995284635288625 -0.10595150879072278 -0.05961284624547463 0.08879496931774176 0.15570564367079023
-0.005068441461308487 -0.04135938032207749 -0.060114798153939476 0.10422093470991194 0.01225213371482746 0.06633816871824602 0.042144546619253195 -0.142702835865949
-0.12123878823797714 0.018138345958126304 0.01981294359209075 0.1363511408044522 -0.03195489613835135 -0.15471444046711907 0.16179651360488276 -0.06580360448928213
0.11008851816269524 -0.03696877888698545 -0.07628481771322924 -0.0531071712342546 -0.03143540274831254 -0.006392872283757527 0.06583607790151041 -0.07417212126610118
-0.022394077112035667 -0.15797592022149762 -0.025419327705361712 -0.05665326549185294 -0.06214005530443296 -0.06517123069212549 -0.10140175992268871 0.06865994258808138

lstm.bias_ih_l0 f8 [256]
00000000: 502b b648 a6a9 b93f 769d 0388 a13b bc3f
00000010: 5994 b039 67d5 83bf ed09 75e4 7846 97bf
00000020: 9f4e d298 f529 b83f af99 1903 977d 9c3f
00000030: 6d3e 0d17 35d5 9b3f 34d7 9fd4 d721 87bf
00000040: 5c5e acb2 7593 b03f 9af4 14a1 904f af3f
00000050: 8fc5 c75e 0f9e b23f 779b 4cfe 6132 91bf
00000060: 60ce 9553 ecce a5bf 95d2 9830 84d5 b23f
00000070: afea 6045 a4ba bdbf 2cbb 611e d393 be3f
00000080: 2d7e f999 e3b8 c23f f56c da28 254f b2bf
00000090: e1af 1f8d 15f1 aa3f 2dd0 f9cd 5b56 c03f
000000a0: 3f9a 8628 2ce7 b0bf 8914 d0fc a10c ad3f
000000b0: f74e 5f3e 2690 b63f 0fbf 4b7a 9b6a aebf
000000c0: 5271 295e ad79 a4bf a938 7716 b0f4 ab3f
000000d0: 6532 a940 3c17 80bf 9ad3 6917 5e0e bf3f
000000e0: 0014 466f ef7f a9bf e67e 02d6 fbfd a5bf
000000f0: 7014 e44a ed95 a93f 5a53 62a3 4fbf acbf
00000100: f7e2 3066 cd08 c33f e17f b77c 3bed abbf
00000110: 8711 6924 e486 abbf 0fc3 b6db 621d b83f
00000120: a678 b48f 8a0c b13f e882 313b 638c c13f
00000130: c4ea f873 085a b0bf ff64 401a 9c89 a3bf
00000140: 1620 1c0b 2074 b9bf bcd6 248e 094c 91bf
00000150: a6eb f7ab e420 c33f 3c5e 0439 d071 b93f
00000160: fc03 abf3 72cb be3f 660f b861 01fa c33f
00000170: 5ab3 9471 28ab b83f 4b5c 4479 1e62 a4bf
00000180: 8c76 4a6f 12cd bcbf 9017 8d2c 872e aa3f
00000190: 8964 657e bb95 b43f 95f7 24b0 b97b b2bf
000001a0: b15e 1ad6 6385 833f 8130 2098 e13a 9c3f
000001b0: a2d3 6f06 616a 78bf d606 a01a 148e bebf
000001c0: d9a6 2146 c8c7 a73f 4aab 4812 bdf2 bdbf
000001d0: c2bd e834 0bef c53f ebe2 fac9 b98d ac3f
000001e0: a935 47c4 178e c0bf 34e5 456c e20c c13f
000001f0: d0dd eab6 2cd4 95bf 223a b9d3 6e8b b33f
00000200: 4fed 9230 51db 743f a014 9f4a f2d8 c23f
00000210: a9ea 193a 72db abbf a120 6c46 0614 aabf
00000220: 32c3 5ed5 be3a 9cbf a64d 2962 65c0 89bf
00000230: 5e48 bcc1 129b ba3f 61eb f31a 3fc7 b23f
00000240: 89c4 dda0 7387 97bf 28f3 6a2d 396f a8bf
00000250: f6fb ce43 ce6d a73f 4919 616e dc66 ba3f
00000260: 95b9 b8ca f14c 88bf 7de0 1144 aff5 a1bf
00000270: 470f 2df1 53f8 a5bf 7f48 6f51 f896 c23f
00000280: aafb 87cd c675 bd3f f982 060c 65f5 bebf
00000290: a668 e717 fe13 a63f 5313 8685 b269 9c3f
000002a0: df7d 27ba 7e52 993f 6087 fcc6 376c 9cbf
000002b0: 29de 9019 6480 9dbf 0e44 3b1a a689 7e3f
000002c0: 806a 30fe 92d6 c33f d3f0 704e 93f8 b13f
000002d0: 0dbd f235 87de b93f 95d0 1866 9486 c13f
000002e0: a32d 9aa7 8a18 b33f b9e4 d415 d0a9 8d3f
000002f0: 908b 2e8b 1ad8 b53f 330b 46b6 6b39 b73f
00000300: 75bf e943 917f c33f 063a 9bef ee89 b7bf
00000310: 5d22 8729 cba8 9c3f 8240 259c 3282 babf
00000320: 30c0 a243 7a99 c53f d08c a8fa 56fe a53f
00000330: 294d a023 d61b c73f 45b5 a129 8f49 b83f
00000340: 8a7f 61bf 9bc7 a4bf 63d6 1831 c28a a13f
00000350: 4ed1 5cd1 2ac5 9b3f a858 7261 7ad9 ac3f
00000360: 1e01 2c8f 91df c33f 1ea4 67da 0be9 773f
00000370: ec2d b180 2949 6f3f 8f0b 7db9 2aa1 a03f
00000380: 8f7e eaaf 1937 b6bf 168f baa4 ddb9 013f
00000390: d4ed 1b34 db4d 97bf 7583 a5b0 b91f a3bf
000003a0: fc17 019b cca9 b73f c9e0 7482 c876 b5bf
000003b0: 7549 801d 003c b93f 47d5 2b55 13f6 c0bf
000003c0: b13f 185f 7153 9abf ef70 a516 888b 97bf
000003d0: 5499 b2ec 6171 c43f 1cdc 07db 7ac1 b53f
000003e0: 6e8a e8b6 87a3 b33f 3c2b 4ba1 d30a a03f
000003f0: c750 91f9 25dc c1bf 0dbd 2107 01c6 71bf
00000400: 2a8b e7ab 5924 c63f 1b96 d542 b83c babf
00000410: 9c06 defd 7615 81bf b650 64f5 b0e2 a03f
00000420: d5ba b30b b046 c43f 1a5b d40b 1e81 97bf
00000430: a4b5 cdda 45f6 ac3f 889d 448c 65d1 c73f
00000440: 906a 2e32 0795 c0bf b3b4 0b1e 88b2 a2bf
00000450: 3cef 985f 417a 73bf f50c fdad ae0d c33f
00000460: 4da7 bdf8 4bf7 b8bf 2b1a d3b2 bedf a53f
00000470: d1eb 9b39 7c41 bcbf 6d0c 76c0 9fef ab3f
00000480: 7203 94c4 879d bebf 2ae8 1a74 48e0 773f
00000490: 5620 98d8 b0bc adbf fada 1558 5dc2 85bf
000004a0: 23d5 abb5 e7e0 b4bf 7fe9 1750 039f b43f
000004b0: 900b fc09 3e37 a8bf b4da e529 d7a2 87bf
000004c0: fb23 2361 3e34 c73f 5dd9 09bc 68ba bb3f
000004d0: d908 6570 e07b abbf 7c5c 7015 80ef c6bf
000004e0: f3fe c4c3 9259 bbbf 3a25 9821 2ddd a8bf
000004f0: 3613 dc39 6d2a be3f 6eb7 530d 982e b83f
00000500: 8ffe b474 27c7 a2bf 9d5b 4fe5 af38 c23f
00000510: 1035 37be a1b4 99bf 67e4 0cde 2364 b93f
00000520: aa60 1af4 e3f3 c5bf 7bce ee1c 0b6e b7bf
00000530: ee71 f18a 68ad c1bf c3a5 6824 ec31 a03f
00000540: 0873 c61b 5761 adbf d937 6957 9563 c13f
00000550: 1048 f921 def1 823f c845 85b8 07f3 b33f
00000560: e4e1 ae42 a659 adbf 4ea6 9f42 3e08 b9bf
00000570: 51f6 02f9 8a8d a53f cf55 13e3 de01 a53f
00000580: 19af 3349 b877 72bf 4238 0ecb dfcb 82bf
00000590: d835 1ac9 eec9 a6bf e365 d1cd 146f c5bf
000005a0: 57a4 a752 c848 a23f 9568 02c9 4381 c0bf
000005b0: 33f5 3a98 074d 71bf 3bff 1e94 ca3a b1bf
000005c0: 92dd 3d36 6a55 81bf 9a16 7308 39ca aabf
000005d0: dc66 07c1 949a babf 15a7 ca60 9aef bcbf
000005e0: e016 b898 4e7d b63f 4eef f744 253c a33f
000005f0: a3c6 fa3a 9ffc aa3f 6709 454e d6b0 c0bf
00000600: 361d 97f0 3067 863f c9ba b12e 51df c03f
00000610: baf4 0ad7 d4b8 753f 06ad 51ac e30e be3f
00000620: 2cf6 64dd cd01 bdbf 3470 836b b460 b83f
00000630: 4943 384b a377 b63f 6427 45be a9c7 b43f
00000640: 3241 967d 67cf b2bf 006e c482 3066 ba3f
00000650: 8d55 9ae4 95ff b7bf d295 4639 1473 abbf
00000660: c62e 80fb 10d4 b6bf 25e3 27c2 7398 c2bf
00000670: 772a 9786 c31d a5bf 9962 fd6f eaff 8cbf
00000680: 6321 ec3c 2e01 883f c480 7682 65cc b03f
00000690: 08ba 3d61 4bbf a1bf 3260 bed8 b471 72bf
000006a0: 2c14 9859 05ec b13f a4f6 8bb9 36e7 c03f
000006b0: b381 3d0b 13b6 bebf c36d cc4b 5392 7c3f
000006c0: b0ca f639 2fc4 983f 029e 5da2 5fdf b0bf
000006d0: 9664 4e6c 1c27 c03f d8f3 7bac c18c 9d3f
000006e0: 7a65 5ceb 968a b0bf 489c 5b18 e82b b23f
000006f0: d11a c8e5 dd78 7abf e67d f4ea 60ea a2bf
00000700: 06ea 0a9c 8f6e 8bbf fb33 6e26 0bfb 78bf
00000710: 8196 25ae 1316 a8bf 0897 5818 57e6 adbf
00000720: 7d60 491e 7ed3 c23f 99b0 1414 2b54 a33f
00000730: d9c1 f085 7620 b1bf 7f2f 868f b687 bc3f
00000740: 15d2 1850 51a7 b03f 6462 1888 54f2 b43f
00000750: 1a4b b0e6 047f b53f ab41 070a 0a66 76bf
00000760: d6e5 2380 b221 b23f 636e b7df 549e a6bf
00000770: 4c0e 5ad8 6186 be3f e091 e92b 6018 b33f
00000780: 64ef 4f5e 1a10 c13f 22b6 bae2 fb3b 9bbf
00000790: 90c6 fee1 f358 c03f cc0b 19c3 7898 babf
000007a0: ae41 9c7f c885 c3bf a375 a558 4de5 913f
000007b0: 2632 0897 f6dc 983f 20e4 f961 da9d b5bf
000007c0: 757f 624a bfe5 a53f fbda 6e29 322b a73f
000007d0: 97e2 1c55 34fc a0bf 9f84 deb7 e70c b43f
000007e0: 74c5 7068 f10e 6ebf 6d56 c735 4cb3 b2bf
000007f0: 119a 04af f6bc 9abf 625a 4136 17e7 a7bf
0.10024489665208347 0.11028489657075177 -0.009684378097583645 -0.022729767745895236 0.09439024907106351 0.02782283741398722 0.027180509120908903 -0.011295019317894985
0.06475005733624911 0.06115390745478884 0.07272430480931845 -0.016793757578081405 -0.04259432335211666 0.07357050119828508 -0.11612917608082783 0.11944312564604037
0.14626736658372988 -0.07152015921967687 0.05262057635977136 0.12763545567907056 -0.06602741231345365 0.056737005339564446 0.08813704512368391 -0.059407099417397295
-0.03999082350194051 0.0546011950897179 -0.007856817935271107 0.1213129813348374 -0.049804193814487974 -0.042953367113339344 0.04997197665401465 -0.05614708775934814
0.1487061261157334 -0.054544314359872954 -0.05376351303542309 0.09419839729413247 0.06659761436864872 0.1370967902212421 -0.06387379485469596 -0.038159254269155334
-0.09942817946659974 -0.01689162187650227 0.14944132229706247 0.09939290420549524 0.12029188584257605 0.15606705924448788 0.09636166356058365 -0.03981108885107484
-0.11250415055334367 0.05113623064839523 0.08040973506776274 -0.07220039892578563 0.009531764956860785 0.027568364057558362 -0.005960825924366116 -0.11935544633891068
0.04644609314057186 -0.1169851464880313 0.17135753711180085 0.055768781572117586 -0.1293363293065515 0.13320570265549636 -0.021317194618601765 0.07634632748634165
0.005091969630650907 0.14724568027137241 -0.05440861663097014 -0.05093402490280253 -0.02756784608181135 -0.012573997553011317 0.10392873029584979 0.07335276039149853
-0.022977644628046554 -0.04772356681266948 0.045759626176270204 0.1031320352059072 -0.011865509985992154 -0.03507754999094546 -0.04291021651309151 0.1452322385435458
0.11507837789393585 -0.12093192618932481 0.04312128106876516 0.027746953391687267 0.024728756057695974 -0.027756568451088426 -0.028810085354250035 0.00745549091125587
0.1549857846410596 0.07019920983379117 0.10105176035971315 0.13691954598619263 0.07459322540142081 0.014484048525093095 0.08532873056405621 0.09071992111243503
0.15233054939335103 -0.0919484457947207 0.027987646493587415 -0.10354915916582466 0.1687462644817983 0.04295608339114099 0.18053700198707048 0.09487242475889442
-0.04058539115135236 0.034261768811501246 0.027119320896603676 0.05634672584089745 0.15526027193846742 0.005837484647124773 0.003819066104858262 0.03247960581077002
-0.08677826447319091 3.380973484226454e-05 -0.022757935576903268 -0.03735142022447394 0.09243468078884115 -0.08384373841261374 0.09857178421251496 -0.13250962885619286
-0.025708934239503104 -0.02299320829602974 0.1597101598501448 0.0849835190527845 0.0767140218309039 0.03133260101238597 -0.13953089414520134 -0.004339221968719953
0.17298432248852552 -0.1024890101594668 -0.008341722128310018 0.03297951694017469 0.15840721675291172 -0.022953481170669844 0.056566412887018275 0.18607777928376046
-0.1295479769731469 -0.03651833884019009 -0.00475526367659623 0.14885505195170592 -0.09752344916128415 0.04272266323964787 -0.1103742256781708 0.054562561267652444
-0.11959122227928079 0.005829127332328135 -0.058080221595503786 -0.010624627352382888 -0.08155677972157042 0.08055134492307124 -0.047296465605561555 -0.011541062322732422
0.1812818502715173 0.10831312742980033 -0.05367947933201984 -0.1791839699442085 -0.10683553008584194 -0.04856244120680704 0.11783487951840929 0.09446096730581896
-0.03667567538877591 0.1423549527814573 -0.025103118166772964 0.09918426676894541 -0.1715054456624377 -0.09152287918441886 -0.1381045034821819 0.03163087791865451
-0.05738327230503698 0.13585154312244077 0.00925038853816676 0.07792709593675007 -0.05732459606173615 -0.09778203131249905 0.04209551133815793 0.041029896945172
-0.004508705012294966 -0.009177921661628233 -0.044509374664908286 -0.16745243119912265 0.03571153649301866 -0.12894484820282473 -0.004223851839637849 -0.06730333439099649
-0.008463697223972475 -0.05232408741134727 -0.10392121994609788 -0.11303105223728623 0.08784953335279111 0.037568249386792915 0.052708602857263 -0.13039664098512135
0.010939009039147334 0.13181509761803614 0.005303222090046572 0.1174146934223935 -0.11330877928863775 0.09522559761848087 0.08776302896900491 0.08117161650912191
-0.07347723785483565 0.10312178795395965 -0.09374367552876191 -0.0536123580853133 -0.08917337551263946 -0.14527747135414262 -0.04124270456266726 -0.014159995596558604
0.011721001848415019 0.06561884341363383 -0.03466258585000409 -0.004502970154042928 0.07000764310221602 0.1320560842504409 -0.11996573471470277 0.006975484252304156
0.02418588439258923 -0.0659084102058998 0.12619357384099733 0.02885725608119913 -0.0646147083865766 0.07098246187853008 -0.006462923800887936 -0.03694441669562902
-0.013394472074073082 -0.006098788790848349 -0.047043433197171865 -0.058397981378489006 0.14707924345816883 0.037751527978202755 -0.06690159578352652 0.1114458179856097
0.06505306439869003 0.0818226654304311 0.08396940834090252 -0.0054684059291080596 0.07082667950080376 -0.044176723775049685 0.11923800975824256 0.07459069320754663
0.13330392460909046 -0.026596008027516167 0.12771461996958466 -0.10388903391962784 -0.15252023917174767 0.01747628072313535 0.024280407875311515 -0.08443989650722061
0.042768457250757765 0.045251433904402526 -0.033174167051076946 0.07832191695207989 -0.0036692347526005534 -0.07304836571651104 -0.02611146395897818 -0.046684956906280176

lstm.bias_hh_l0 f8 [256]
00000000: aa56 6c11 6071 a53f e73a 0710 8141 a23f
00000010: bdf6 640c 344d c63f 8142 1d79 7afe b2bf
00000020: 9f4e d2d8 485d be3f 3933 6300 48fb c53f
00000030: 3358 1e9d 5171 c1bf 24d7 9fd4 5b4c 8cbf
00000040: 302f 5679 20d9 c63f b385 752f add4 bcbf
00000050: d1e9 e084 0f09 93bf 20d9 6c80 6815 bf3f
00000060: 618c 1a0b e060 c33f 4969 4cf8 a185 c03f
00000070: 5875 b0a2 465f c4bf 97dd 30af eeda c33f
00000080: 2c7e f9d9 bfdb c33f d5b3 69a3 64d5 94bf
00000090: f4d7 8f46 8007 b23f 60a0 f35b a682 bc3f
000000a0: 7d34 0d51 55c9 a4bf efd6 5f06 a2a1 99bf
000000b0: 0bb1 a041 d4d9 bcbf e081 680b 3085 9a3f
000000c0: a33a 5a87 d0d7 843f ad38 7716 2107 a03f
000000d0: b0d9 ea77 16a7 bd3f d1e9 b4cb d130 c23f
000000e0: de9f 307a d3e8 7bbf 1d81 fda9 4fe0 aa3f
000000f0: dd28 c895 015c 943f b129 b191 3eed bbbf
00000100: f3c5 61cc b7f3 bb3f ffdf 2d5f 1000 c1bf
00000110: 3b77 cb6d 502e b03f f33c 4964 2a40 b8bf
00000120: 543c daa7 b442 cb3f 8f0b c66c c835 a13f
00000130: 3b15 074c fd92 b43f fd64 409a f5e6 a5bf
00000140: 3640 3896 04d9 a3bf 51ca 76dc f296 b13f
00000150: 95ae dfaf 5f72 a23f 242f 82dc 099d c43f
00000160: eef7 a998 6802 a7bf 6df6 801b 5469 8b3f
00000170: b066 2963 d427 ad3f ede8 aea1 da0f c23f
00000180: 32b4 537a a162 8ebf 232f 1a59 6f54 9b3f
00000190: eb36 3583 00ea a3bf 74de 93c0 3665 90bf
000001a0: 0f5a 9e02 7ad2 c4bf 1c0c 0826 9185 ba3f
000001b0: c802 99af 0ad2 bf3f 6c03 500d afa4 c2bf
000001c0: 609b 8618 3778 8f3f 9b56 91a4 1cc3 aabf
000001d0: fcf6 a2d3 77a1 a23f 7971 fd24 3e33 bd3f
000001e0: afd6 1c11 7f0a adbf 9835 7427 3dd6 b7bf
000001f0: 2091 8aa4 f56f aa3f ddc5 46ec 03a3 b4bf
00000200: d12e 09d3 c65e bf3f 7b52 7caa 1003 a33f
00000210: afea 193a bb31 adbf d7f7 64ae 2f2f c33f
00000220: 689e 5015 29d8 a93f 4cd6 ba93 b92f b13f
00000230: a1b7 433e ce3f b5bf 60eb f39a 3ea8 bc3f
00000240: df8e c897 a5b9 bb3f 3543 a574 0ffe c43f
00000250: 0282 18de 167b b1bf 4819 61ee a661 b83f
00000260: 602e ae72 e03b a9bf e387 fb8e 1b81 c03f
00000270: b6f0 d28e b686 a93f f421 bdc5 7ff7 a33f
00000280: dffd c386 a5b7 c23f 17f4 e5cf 2e92 9b3f
00000290: 2fda f945 714b c53f aa09 c3c2 fe1f aa3f
000002a0: dd10 c42e ea48 67bf 176f 2027 64a6 c53f
000002b0: 8637 64c6 7440 b7bf 3fb4 a361 441f b33f
000002c0: 1856 3e87 1893 a0bf 4e1e 1e63 8c2f a7bf
000002d0: 845e f93a 10d7 c43f 2f42 6318 7d5e ad3f
000002e0: 5fd2 6558 fe77 b5bf 979c ba02 1e87 b23f
000002f0: d2d1 45d3 bacc 95bf 6aa6 cf4d bce3 85bf
00000300: dffb 4d1f 5ea0 9a3f ea17 9341 f789 943f
00000310: 6c37 9e75 fbf5 bfbf 1a02 9570 2bb5 92bf
00000320: 31c0 a223 30e7 c43f d08c a87a 8eaf a23f
00000330: 69cb 7ef1 4986 a7bf a0da d094 05f7 c53f
00000340: 7780 9ec0 0df8 a43f 3553 ce9d 97cf 94bf
00000350: d165 d445 cf3a c0bf a84e 1b3d 8fd4 95bf
00000360: d748 00cb 4b77 623f 3a7a a67d 4ae9 b03f
00000370: 7289 050c 0750 b53f 347a 41e3 3ed8 b3bf
00000380: 21fd d45f 35b8 a9bf ab68 4b04 5bf5 b3bf
00000390: e8f6 0d9a 737b a3bf 453e ade7 2749 be3f
000003a0: fe17 015b 3a53 bd3f 9f8f c57e 8cb2 c13f
000003b0: 7449 80dd fe13 b13f 7b56 855a e970 7f3f
000003c0: d51f 8c2f ffa1 aabf 1eae d442 768b c0bf
000003d0: a432 6599 53ba b83f 1ddc 071b e7e1 b53f
000003e0: 3b45 749b 4900 c43f a195 a5d0 e3ce be3f
000003f0: 3e86 8acc e4d9 91bf d41b 7210 abdf b0bf
00000400: 2a8b e7ab 9322 c83f 0ecb 6a41 0c94 c1bf
00000410: 5703 ef7e 3857 9fbf 5a28 b23a 06c7 b53f
00000420: a975 67d7 a5e3 ba3f 3be9 0abd 80fc b73f
00000430: a6b5 cd5a 6ee0 aa3f 8a9d 448c 6b53 c13f
00000440: 3caa b948 affc adbf 51da 05cf 7459 bdbf
00000450: 9277 ccaf ceae 84bf 3acc 0bc8 be25 aebf
00000460: 64b1 848e 5793 a93f 8bc6 b4ec aaa6 c23f
00000470: 5728 c80c 436b a33f 3506 3b60 1bd9 b13f
00000480: 7403 9484 6318 bdbf 00a3 7c71 8327 acbf
00000490: 2d10 4cec 9098 b2bf b15d 81f5 c71a c5bf
000004a0: de2a 548a 348e b03f f7d2 2fa0 b6c0 a93f
000004b0: c405 fe44 443b b1bf 5eb5 cb53 2e42 77bf
000004c0: ef8f 8c84 b8ff a13f 5dd9 09fc 5ab3 b03f
000004d0: 3942 197c c3f7 c0bf 02b9 e0aa 80dc bbbf
000004e0: f3fe c443 02b4 bfbf 3925 9821 62c1 aebf
000004f0: 3513 dc39 5800 b03f d86e a71a 062d a73f
00000500: 3d7f 5a7a 3ae4 b9bf e573 eba9 680a 7e3f
00000510: 809a 1bdf f9af a7bf 9d1b f361 34ff b1bf
00000520: aa60 1a94 161a c4bf 8431 1123 7643 ba3f
00000530: 6df7 b878 1507 5cbf 8ed6 e5f6 a51a c6bf
00000540: 001a 73c8 2256 953f d937 69d7 c3c6 c33f
00000550: 03a4 fc10 2906 903f e8a2 425c f233 cc3f
00000560: dde1 aec2 39d0 a7bf a332 fd14 a4ae 8abf
00000570: 2e7b 81bc 300d be3f 1355 764e adc9 b9bf
00000580: 0fc5 6cbb b92b b93f 0ac7 6139 2a6c b2bf
00000590: d735 1ac9 4c02 a6bf c2cb a29b f34e b7bf
000005a0: 24d2 5329 d5b5 b23f 9368 0249 b0b7 c8bf
000005b0: ae50 7c06 ea9c bd3f c600 e1ab c2bc bc3f
000005c0: 6277 8f8d 3975 a8bf 508b 3984 be38 bdbf
000005d0: dd66 07c1 53f6 bcbf 8753 6530 194f c4bf
000005e0: 21e9 47a7 418d b4bf 5808 841d 1363 b2bf
000005f0: b49c 82a2 de41 bfbf 6709 450e b9c6 c1bf
00000600: 5a1c ede1 9836 b7bf 7c8a 9ca2 b470 b4bf
00000610: 47af 70cd e543 bf3f 08ad 51ac fd01 b43f
00000620: 9b13 36c5 06d0 ad3f 7c1f f928 b4a8 a7bf
00000630: 8379 8f69 c20d a6bf 9cd8 bac1 0c8e bebf
00000640: 3327 c8b2 6776 62bf 0a24 777a baee a3bf
00000650: ee54 cbb6 ba05 a33f 54d4 728d 40f8 983f
00000660: c42e 807b 2ff9 b6bf ab39 b0fb a5cf b33f
00000670: 8cd5 6879 37a1 a03f 5975 0a40 ae72 6d3f
00000680: 6621 ec3c 268e 8b3f 6ffe 127b 01b3 abbf
00000690: 7e91 b0a7 73ff c03f 0acc 179b b32a aabf
000006a0: b4d7 cfcc 2ff8 a9bf a5f6 8bf9 6a3a c53f
000006b0: 5203 7b96 7fc6 a6bf 2839 430b fe81 b9bf
000006c0: ac9a 04e3 19b0 afbf fb61 a2dd baf1 b93f
000006d0: 62db 8c9d 6378 96bf f5f9 3d56 f83e af3f
000006e0: 0a35 4729 ed74 a93f d08e 919e a1cb 9ebf
000006f0: a481 5c9e 7ae7 b3bf 7b1f bdfa 433a c0bf
00000700: ff74 05ce 2f6b 93bf 8239 321b df4a a23f
00000710: be34 ed68 08e6 b23f 00d2 4ecf 9213 9d3f
00000720: c903 4bf2 512e 953f 5258 0aca b0ed b93f
00000730: 109f 075d 9620 c13f 01be 183e 3288 913f
00000740: ee2d e7af adb7 b9bf 4b13 c340 241f 873f
00000750: 03a7 7dca aeb4 82bf e38b 5fdf 71fd b03f
00000760: d8e5 2300 6591 b93f a291 48a0 b085 a63f
00000770: 8f1c b4b0 ac33 a03f 206e 16d4 29b8 babf
00000780: cfde 9f3c 78cb b33f 7c52 5107 ba07 b33f
00000790: 91c6 fe21 cdee c63f 34f4 e6fc 1e49 b93f
000007a0: 5bd8 20ce cfce 59bf 2f45 ad53 f2d8 a5bf
000007b0: 5964 102e 2939 863f 06f2 fc10 50db c0bf
000007c0: b83f 31e5 0776 b93f 7f6d b754 445b b63f
000007d0: e23a c655 2aaa 9f3f 4209 bd6f f07f a23f
000007e0: e63c 5e9a b529 c33f d4ac 8e6b cdfb abbf
000007f0: 119a 04af 86d7 9bbf 30ad 205b b80d b9bf
0.0418806096333076 0.035656007010052275 0.1742310581702692 -0.0741955323876571 0.11861090939992856 0.17173099535866657 -0.1362707154445971 -0.013817517687111876
0.17850118565217477 -0.11262018593472227 -0.018589251027359147 0.12142041335468834 0.1513938955514247 0.12907814620923322 -0.159157590330248 0.15511878542177435
0.1551437200860034 -0.020345280145580198 0.07042695734693877 0.11136855835832327 -0.040598550933830226 -0.025030643118916392 -0.11269880869139486 0.025898695656111914
0.010177258616093815 0.031304391853710235 0.1158308069960643 0.1421148533498369 -0.006813837130756865 0.05249260854793845 0.0198822257680512 -0.10908881241736058
0.10918759097855694 -0.13281445166990122 0.0632066982320482 -0.09472908924475458 0.21297319599077247 0.033613456037549054 0.08036788087982398 -0.04277770526841527
-0.03876509031044899 0.0687095440141914 0.03602885267158943 0.16104243533151774 -0.04494025100301245 0.013384492005680227 0.05694450102300885 0.14110882658662352
-0.014836560769675076 0.02668928128564042 -0.03889466859491882 -0.016011100296024997 -0.162673236158938 0.10360057047368837 0.12429873263409796 -0.1456507506373116
0.015366011081665298 -0.05226983555682559 0.036388153633636094 0.11406315234257204 -0.05672070583243049 -0.09311277592879319 0.05163543351707944 -0.08061241644352131
0.12253992702715812 0.03713275986789185 -0.05702004513019198 0.14987751021720783 0.05047729859535083 0.06713447434125291 -0.08300484676484966 0.11194220812823863
0.10830149608278415 0.16400330730041338 -0.0682844440675652 0.09524005241209921 -0.0492849483481137 0.12894005281037754 0.04985590451676229 0.03899764336398795
0.14622944908477017 0.026924830855467343 0.1663648215942017 0.05102535369362056 -0.0028423856621221225 0.16914035711749228 -0.09082727283040812 0.07469584831024266
-0.03237225199624677 -0.04528464040691614 0.1628132141074624 0.05736151621534124 -0.08386220605991344 0.07237422529816438 -0.02128879465586115 -0.010688277363402682
0.02600237909382119 0.020057547929148635 -0.12484714147123349 -0.018269232508148027 0.16330529918696038 0.036495640252064754 -0.04594641755047386 0.1716010071410965
0.04095499969776111 -0.02032315159484029 -0.12679472837116504 -0.021318662743239486 0.0022541504222398467 0.06605973785051669 0.08325237315651693 -0.07751839683758349
-0.05023352427314821 -0.0779625783428936 -0.038051235728728205 0.11830377012415123 0.11455120775016778 0.1382613772394707 0.06671135814420898 0.007676040208328789
-0.05201718764698141 -0.12925604117604989 0.09659311766626871 0.08547825250558146 0.15625877466713142 0.12034438938061111 -0.017432761177252447 -0.06591290618426565
0.18855520147106947 -0.13733056253621395 -0.03060615801564678 0.0850681203175169 0.10503613003625979 0.09369663825319645 0.05249352320138749 0.13535827969574782
-0.058568456294626675 -0.11464624456662277 -0.010099043598127886 -0.05888172332733928 0.04995225538945894 0.14571129377286626 0.037927718458448716 0.06971903895739547
-0.11365339266559521 -0.05498896370256112 -0.07264047402355862 -0.16487979400220135 0.064669879695582 0.05029841142087393 -0.06731058773404813 -0.005678349462624991
0.035154119663530874 0.06523674634249717 -0.1325611453962823 -0.10883335277387476 -0.1238404670193594 -0.06006914768301858 0.062505258680244 0.04526537967077865
-0.10113873946329206 0.007334145396012713 -0.04626446579441268 -0.07030036345814357 -0.1570461486014712 0.10259188037998085 -0.0017106733020137669 -0.17268824153477563
0.02083639477202759 0.15450332658877988 0.01564850011996911 0.22033528809449554 -0.046510510458975786 -0.013028413668189137 0.11738876917068516 -0.10073359647352147
0.09832344842722683 -0.07196296597410537 -0.04298629717696272 -0.09104845571236722 0.07308704623194068 -0.19310573162949093 0.11567557009067528 0.11225525566351555
-0.047769354372333664 -0.11414709785598842 -0.11313365423793749 -0.158663891440167 -0.08028040250784275 -0.07182425947760984 -0.12209884135755794 -0.138877040832152
-0.09067683711792665 -0.07984475107199701 0.12212978616360913 0.07815537888534518 0.05822774083484391 -0.046208982469180676 -0.043073726068302974 -0.1193550084088621
-0.0022537255629274887 -0.03893072838724983 0.03715308648467351 0.02438450682958078 -0.08973976864961758 0.07738721270309294 0.032479985781189574 0.003594723064749655
0.013454722150996811 -0.05410008075113814 0.13279576957678424 -0.051107037241216416 -0.05072163939614374 0.16584527192019496 -0.044483172530368834 -0.09963977599111173
-0.06189041992393149 0.10134475623124921 -0.02194362305746312 0.06102729847679093 0.04972020272144036 -0.030073666861780535 -0.07775083891147588 -0.1267781233129844
-0.018963572454016916 0.03572747427925817 0.07382252275165777 0.02839497938448865 0.02068450967158578 0.10128312046649171 0.13380698721379547 0.017121110000685395
-0.10045896095760273 0.011289866663341327 -0.00913368754818889 0.06636726096580463 0.0998747945158337 0.04398872334084848 0.03164424569154633 -0.10437261035843237
0.0773234508523004 0.07433664969114234 0.1791626373283646 0.09877198862427933 -0.001575186667208259 -0.04267079612203372 0.01085121318651454 -0.13169289426322467
0.09945725770489744 0.08733012264513283 0.030922566876649855 0.036132348670906214 0.14971036946778965 -0.05465547502475379 -0.027189354355096344 -0.09786560272975886
