model.ckpt (torch, 675451 bytes, 14 tensors)

lstm.weight_ih_l0 f8 [256, 1]
0	0x3fac1393af19f201	0.05483685982196463
1	0xbfae171d35158bd0	-0.0587700965213781
2	0x3fb32bdbcfb487d1	0.07488797970702811
3	0x3fb16a4c189820aa	0.06802821731992262
4	0xbfb50ac002b97e73	-0.08219528261678892
5	0x3fba4066aa866ea9	0.10254518187724194
6	0x3fbbbc0243a00c80	0.10833753729825624
7	0x3f9f850f3599e2d2	0.03078101887374169
8	0xbfaac8e21e7b9915	-0.052313867779775126
9	0x3fb14caab13edf24	0.06757609202656717
10	0x3f8ea7cff9ae36a3	0.014968514258522808
11	0x3fc3173e10391e61	0.149146802827306
12	0x3fb6b0b01d0634ef	0.08863354405021416
13	0x3f900c0412bb3d2c	0.01567083706214338
14	0x3fc15d84b726e0d7	0.13566645567858046
15	0x3fb643147ff77b19	0.08696106075465727
16	0x3fbe3bfb82867298	0.1181027597107892
17	0xbf7ec8e393173ad4	-0.0075158013946310005
18	0x3fa82b0741619f25	0.04720328019248957
19	0x3fb4268d752d86a3	0.07871326552187922
20	0x3f986d687c94c5ec	0.023854858974294332
21	0x3fa3353ab4f6ffca	0.037515482511934886
22	0x3fa2a406443f9ce6	0.036407657462229
23	0x3fb846b4efbecfeb	0.09482889989050107
24	0x3fb29b7d52cb2a17	0.07268508216217416
25	0x3fb50b4bcfc7aebd	0.08220361540559913
26	0xbf5c56b66e9cd856	-0.0017296582759178856
27	0xbfbef33e1015fdf5	-0.1208990849754555
28	0x3fbd832ca371dad7	0.11528281202650291
29	0x3fbe31576548bfa2	0.1179403898502174
30	0xbfabbc7bb3a9ea63	-0.05417238777313995
31	0x3f9c97508c44bedd	0.02792096954470834
32	0x3fad36d22a86228a	0.05705887574282993
33	0xbfb8d00ac258c050	-0.09692446942131139
34	0x3fac0d9d54e4585d	0.05479137097624751
35	0x3f563391d1980dcf	0.001355068589305886
36	0xbfb4d2c7fe1ab4a6	-0.08134126619070745
37	0xbf79f2205f4c2772	-0.006334425405620668
38	0x3fb789402037965c	0.09193802629996511
39	0x3fa050cf6322c094	0.03186653218415461
40	0x3fc1bf144e01a7d0	0.1386437779322578
41	0x3fbdeeec8c4443af	0.1169269411514182
42	0x3fc666a37a1983ae	0.1750072809400342
43	0x3fbe4648bc19943c	0.11825995056422384
44	0x3f962643a59f5aec	0.021630341514390958
45	0xbfa3c663800dbe97	-0.03862296045451535
46	0x3fc4bdefe32b6068	0.1620464190698414
47	0xbfc545f05b1f7610	-0.1661968655525219
48	0xbfb1a5e37f2ffe96	-0.06893751006281898
49	0x3fb31e73df53fb08	0.07468342020363761
50	0x3fb972f8bd6f72cb	0.09941057801138269
51	0xbfc2ada953eac116	-0.1459247264624614
52	0x3f8c8f2e8ae93d71	0.013944972624044568
53	0xbfc112e0e2b21165	-0.13338862485046402
54	0x3f9403f09c1c02bf	0.019546279457247403
55	0x3f346537e75c134c	0.000311208866478109
56	0xbfb9bfe562f8df52	-0.10058435121834222
57	0x3fbf3a8326ea4e01	0.12198657703475392
58	0xbfbebd40b86e6379	-0.12007526877131437
59	0xbfbccd81739d1f92	-0.11251076767541537
60	0x3fbbee9202cb813f	0.1091090447257601
61	0xbfb9cadc77dfa85c	-0.10075166632273763
62	0x3fb07681bba9ccaa	0.0643082698023131
63	0x3fbc00ade1a977cc	0.10938536414457117
64	0xbf509da0065377f2	-0.0010141432515449159
65	0x3fb82bd1a3781b5f	0.09441862336107708
66	0x3fa27f13785b6e09	0.036125763361010206
67	0x3fbeac6784f752cb	0.11981818195574616
68	0xbf9f05bf953314a7	-0.030295365792672026
69	0x3fb3fc4ba1123435	0.07806847269439816
70	0xbfa0c2f50310ccf2	-0.032737404464933464
71	0x3fb0cd1407fabe4b	0.06562924570857225
72	0xbf77a6da60fb992c	-0.005774357836094073
73	0x3facd843c3738305	0.056337468727866415
74	0x3fc3eac8d3a3681f	0.15560255369092688
75	0x3fbc2600dee94926	0.10995488588495003
76	0xbf956650f0d30a97	-0.020898117731813128
77	0xbfb6d79a7d230e3e	-0.08922734789944628
78	0x3f9c2496d66e583e	0.027483326757270492
79	0x3fbedd3f3dbe7017	0.12056346185130483
80	0x3fb438fbc6fd33fd	0.07899449928409293
81	0x3fc4150c1660fb64	0.15689231007305715
82	0x3fbb6eaef5c615ee	0.10715764522873147
83	0xbfbc44635c07892e	-0.1104185199433558
84	0xbfb0ece197c770a1	-0.06611452060264124
85	0x3fb87a8147c0347f	0.09561927797058621
86	0x3fb28be0751f6d45	0.07244685038988503
87	0xbf80821617e6c864	-0.008060619930663822
88	0x3fa8ac829f5ecd8f	0.04819114871443297
89	0xbfbb09e8b1ce65bd	-0.10561994877789167
90	0xbfc4e46ba1d2e323	-0.16322083856155087
91	0xbf9e9e65454f61e1	-0.029901106219627386
92	0x3fb2fd3f336dd59a	0.07417674069968996
93	0x3fc5e0f1f23cb986	0.17092727973927085
94	0x3facf87b3db07f64	0.05658326271100014
95	0xbfc4546848329fd6	-0.15882590794831114
96	0x3fbd0b4fe0a920b6	0.11345385775450975
97	0xbf9341dd8520588e	-0.018805943727862977
98	0xbf31a3cdee4a48d7	-0.0002691629181664884
99	0x3fb6bff3c2c43f75	0.0888664579872492
100	0x3f9377f595955621	0.01901229596599852
101	0x3fbe058ad86f03d5	0.11727206977867806
102	0x3fb3855574dcb9f9	0.07625326254922261
103	0x3fb1174ff09e191b	0.06676196693851859
104	0x3fc2e0285672151a	0.14746574612596747
105	0xbf9dbfb27822084a	-0.029051579077084257
106	0x3f969cbcc49d0a54	0.022082280636150323
107	0x3fa39e01b0dcbf4d	0.038314869727740765
108	0xbf970bd3ad1f139a	-0.02250605339192511
109	0x3fb5771cca8409bd	0.08384876198036913
110	0x3fc405841cf0e8cc	0.15641833699357333
111	0xbfa6569b7e444cd0	-0.04362951198904741
112	0xbf8b033977b74abd	-0.013189743963186168
113	0xbfa8f12d06e68747	-0.04871502598986282
114	0x3fa00587f1e107bc	0.03129219844460304
115	0x3fb591a8ad0ffb72	0.08425382828862185
116	0xbfa286c886e17876	-0.0361845650338503
117	0xbfb081fec84b3ad7	-0.06448357000338532
118	0x3fb81d0cca99765c	0.09419326730991301
119	0x3fc0a8abe030e218	0.13014744231055952
120	0xbfc551a4b5d43704	-0.166554058822321
121	0x3fbf26cd197adc4f	0.1216858088690611
122	0x3fb3c22032f5cb59	0.07718087429183863
123	0xbfa70cc6f2a554bf	-0.0450193568418995
124	0x3fc22ab8f2c1054d	0.1419287858316615
125	0xbfb4195b21ffbc35	-0.0785119016652381
126	0xbfa4db621741f033	-0.040736260737475403
127	0x3fc306e5a0ec5c29	0.14864797933179943
128	0x3fa59e542a7f31f3	0.042223577678303224
129	0xbfa94ab22f173138	-0.049398010490764255
130	0x3fc000b36c26630c	0.125021388824074
131	0x3fb2025b89473aa7	0.07034847356338024
132	0x3f949481a11197c5	0.020097756820540064
133	0x3fb5fe9a634c3438	0.08591618465671125
134	0xbfac38958e445f9e	-0.055119203201854136
135	0xbfa8bb2ec7df2600	-0.04830309095229879
136	0x3fa36fabc52fe431	0.03796135694569392
137	0xbfc104aa40b3d6d0	-0.13295486602117146
138	0x3fbfd712e6fa73ae	0.12437551631087615
139	0x3fbf162bad54f1e4	0.12143204671605862
140	0x3f93406c6a05b658	0.018800443621719815
141	0x3fbc446553deedc0	0.11041863725306822
142	0x3fa3dd33f1e71648	0.0387970192710268
143	0xbfbfd5cb8b925b57	-0.1243560043097721
144	0xbfb5aecd77f02dd1	-0.08469852617434205
145	0x3fc72aabcc9fc192	0.1809897183552605
146	0xbfb808ea804a364e	-0.09388604766919537
147	0x3fb6b5600a68d6cb	0.08870506528986792
148	0x3fbe88fedaacc8a1	0.11927788580649913
149	0x3fc29429adade1da	0.14514657001906422
150	0xbfc67edecb07b076	-0.17574677384925835
151	0x3fc1fbf36bd89982	0.14050143018648603
152	0xbfac5849d614692d	-0.05536108721044495
153	0xbfafe88ebb1ea374	-0.062321148244627006
154	0x3fb4333eeb469c9e	0.07890694850958588
155	0xbf912f4180ba4a96	-0.01678182933990032
156	0x3fc641dbcccd252d	0.1738848447805962
157	0xbfbac602081cb201	-0.10458386133240795
158	0xbfb0e9b0319c0105	-0.0660657998196293
159	0x3fa72a1f48f492d8	0.04524324193542889
160	0xbfa9ead11130825e	-0.05061963400681145
161	0xbfb0f71cc5eeaf0d	-0.06627063591320966
162	0x3f9ce0d164b0f632	0.028201362391192038
163	0xbfba452507afe260	-0.10261756360694951
164	0x3f9340d774b0d374	0.018802038666950918
165	0xbfc0b2f089b4a646	-0.13046080325993809
166	0xbfbf1af3e7c5e35c	-0.1215050164081623
167	0x3fadd94b8c355a53	0.05829845510986744
168	0xbfb4d8fbb7b01943	-0.08143590197150723
169	0xbfb3604ff76ae6c0	-0.07568836012333247
170	0x3fc367c3b46dea39	0.15160414037730321
171	0x3fb723affb446a17	0.0903882969327373
172	0xbfafdf6cfd956318	-0.062251478152296424
173	0x3fbb5644580ae023	0.10678507947420761
174	0xbfc36da36349c098	-0.1517833933644439
175	0xbfa03e2cd00d2642	-0.031724357983489174
176	0xbfb14939a3fe1618	-0.06752357724879976
177	0xbfb3ad20f802d50c	-0.07686048560102082
178	0x3fb7e4ac4d85a04e	0.09333302395464324
179	0xbf9a52904d71d66b	-0.02570558045086672
180	0xbfb1e57fccc55162	-0.06990813016210987
181	0xbf4c3399bb239197	-0.0008606434478477973
182	0x3fbaa11c9368bd53	0.10402086829048089
183	0x3fc1d55bd9b22f84	0.1393236935585912
184	0xbfa6f06fa82616a4	-0.04480313232037972
185	0xbfbd70b6b418e243	-0.1150011243524967
186	0xbfbc34313d8e1a9d	-0.11017139199075605
187	0xbf9d5c3741a3f598	-0.02867208803308116
188	0x3fb5e8037aebc5a7	0.08557149649620631
189	0x3fa55356f8327d31	0.04165145663977866
190	0x3fc3b4774be923d8	0.1539448853166323
191	0x3fb9dc2439835f0e	0.10101534275179011
192	0x3fb336657ea90610	0.07504877416888456
193	0xbfacbad97e123e16	-0.05611304916339692
194	0x3fa8160d09db964a	0.04704323525747307
195	0x3f901817c36c42e5	0.015716906836192108
196	0xbfa5ab738760fe34	-0.04232369449209408
197	0x3f99bd072502d1b3	0.025135146745655933
198	0x3fbf8d56a3f70c4e	0.123250403433347
199	0x3fbe6f9749937ed6	0.1188902430180819
200	0x3f9d91193e02193c	0.028873819741897608
201	0xbf994fa912264a4d	-0.024717942936670224
202	0x3fa0f151551eabcf	0.03309110797939462
203	0x3fa4d6c862d5682a	0.040701162399912796
204	0x3f6ac7981f8a8e86	0.00326900207103781
205	0x3fad8979c4e4cc7b	0.057689481053238865
206	0x3fa4bbaedb84abc2	0.04049440793672644
207	0x3fbf7b667ee36691	0.12297669027193538
208	0xbf7f1f8a2d3746fa	-0.007598438026848115
209	0x3fc895a89f66f3cb	0.19206722052868339
210	0x3fa04939378158c6	0.03180865099482015
211	0xbfbc38610bb43fb1	-0.11023527656311562
212	0xbfa6aa571d38aad2	-0.04426834327417385
213	0x3fb1758b48e5c88e	0.06819983033872942
214	0x3fa41d63a332eeee	0.03928672187018188
215	0xbf99b8755db6c175	-0.02511771568760098
216	0x3faa841a4f987cb4	0.05178911420466062
217	0xbfc0b36da8db48de	-0.13047571892690873
218	0x3fb370516e2ee2a2	0.07593258800523953
219	0xbfb2f7c690f9bde8	-0.07409325637285458
220	0x3fb91681eb8433be	0.09799968719398941
221	0x3fc036e5bac75558	0.12667533512164186
222	0xbf58a9c6348783c8	-0.0015053210828386166
223	0xbfb598ee9979997f	-0.08436480757663921
224	0xbfbd942963ee8f3d	-0.11554201783888814
225	0xbfa9e9b14a58fabe	-0.05061105759204086
226	0xbfaf36043bcab441	-0.0609589884746602
227	0x3f50f0b22230bcc3	0.0010339488587865354
228	0xbfc48e0052d97423	-0.16058353467352146
229	0xbfa0227830be0604	-0.031512981367097154
230	0xbf7af47dca0aad2f	-0.0065808213845841975
231	0xbfc53326bc541c84	-0.16562351413469767
232	0x3fb00b63ccce24e1	0.0626737952244585
233	0x3faa3f37e92e100c	0.05126356812891694
234	0x3fa0d0490f6981a3	0.03283909142624288
235	0xbfb1b77fe29eb92d	-0.06920623095240748
236	0xbf8dace57f5b43eb	-0.014489930104362577
237	0x3f955c20a05651a3	0.020859250818448093
238	0x3fbb95218eb79bbe	0.10774430975253232
239	0x3fb3835f79f0ddca	0.07622334220001573
240	0xbfbf707bdd718fb4	-0.12281011730516306
241	0x3fbe8a4067839c8b	0.11929705168914688
242	0x3fb233f268c583d9	0.07110514696024896
243	0xbfc2fe6355388c72	-0.14838830624748628
244	0xbfa6320632743f0a	-0.04335040441412559
245	0xbfb2fc3a6fbf0574	-0.07416119793108128
246	0x3f991f4999e0fd54	0.02453341485693035
247	0x3fbfebc3591d31c1	0.1246912090838981
248	0x3fb34167b1e1dbe1	0.07521675198391577
249	0xbf923918efe2c51b	-0.01779593433520175
250	0x3fb87e6a16dd19b6	0.09567893083758502
251	0xbfb98e0a338a5174	-0.09982360609348523
252	0x3fac65b9a77bcba9	0.055463601774952416
253	0xbf9fe7e96749a55e	-0.03115811055105177
254	0x3fc147655fd30521	0.13499133280678513
255	0x3fb0ef99b6b4078e	0.06615601263550117

lstm.weight_hh_l0 f8 [256, 64]
0	0xbfb9a79504738e48	-0.10021334990192898
1	0xbfab371539082e76	-0.053154624187382746
2	0xbf791e5459fb8e96	-0.006132440088297072
3	0xbfc0e7d83cc0fe64	-0.13207533804414873
4	0x3fb5c7a356159430	0.0850774846235971
5	0xbfbc9821f0916717	-0.11169635890237505
6	0x3fb0f264685011c1	0.06619861170481213
7	0xbfbc9d12f47a25d8	-0.11177175968818831
8	0xbfa05ec1578097df	-0.03197292512076876
9	0xbfbeac710eca1855	-0.119818750487043
10	0xbfb1fdd33d1b6545	-0.07027931444044551
11	0x3fbcecb3d41abae5	0.1129867928345721
12	0x3fb8fc4551f5f76c	0.09759934664722686
13	0xbfbb824a4c9fc9db	-0.10745682116229409
14	0x3f8333e07e1470f5	0.009376291129733686
15	0x3fbd991ec4f7d10b	0.11561767872609978
16	0xbfb43cfcf384f8a4	-0.07905560441301646
17	0x3f61a2bd16e57a23	0.0021527951386553098
18	0x3f9f336431aa11a5	0.03046948006751084
19	0x3f89bf41bfb811a2	0.012571824706363813
20	0x3fb1d0f9e93c0201	0.06959497398566585
21	0x3fa5107b3d77612c	0.041141368153775865
22	0xbfae6f354c0a56a4	-0.059442201168321135
23	0x3f92f0547d9495b0	0.01849491135103215
24	0x3f9ee1cb9107eb72	0.03015821526239954
25	0x3fc0c2fda2652c0a	0.13095064572766574
26	0x3fab947f03aae3db	0.053867310712526005
27	0x3f90cd802186db52	0.016408922239601616
28	0xbfb98c11f50b2627	-0.09979355080135886
29	0x3f9258b6da44bed3	0.017916543075613255
30	0x3facdc86380c935d	0.05636996683305171
31	0xbfc046c8c8a9ce5b	-0.12716016576779307
32	0x3fbb183c4573f1f9	0.10583855338695249
33	0xbeed4b52b19ed419	-1.3968577650883385e-05
34	0x3fa9dcf3c858420c	0.050513857084414665
35	0xbfac9b804265fb98	-0.05587387857939702
36	0xbfafccf3d67e895b	-0.06211053841913624
37	0xbfb5d4e1806af81c	-0.08527955422593475
38	0xbfb453feb1ec5e40	-0.07940666049795997
39	0xbf87644b52360521	-0.011421764799481484
40	0xbfaa604b6ec647f7	-0.05151591994503229
41	0x3f9f4c34d44ef7b8	0.03056414171054886
42	0xbfb9f374570d5d84	-0.10137107014940311
43	0x3fb25f2dac17ebc6	0.07176480723857911
44	0x3f768246efd6606e	0.005495335671547348
45	0x3fbb70173047eb58	0.10717911652311096
46	0xbf843f0c5f75e082	-0.009885880149099305
47	0x3fb3abbf1ca355d6	0.07683939408465021
48	0xbf763ce31a825f83	-0.005429160235642774
49	0x3fa4f35fc9702ab8	0.040919297542207855
50	0x3fa561ff0ce53872	0.041763277362961385
51	0x3fb16b84f5c4ae86	0.06804686546518654
52	0x3f86987ced08017c	0.01103303526269949
53	0xbfc6e8a5c7692c65	-0.17897484051568138
54	0x3fb2d5fa3e01e4f4	0.07357753766872915
55	0xbf9ccd65694640c8	-0.028127274084511794
56	0xbf9fb9c372d2c2b7	-0.030982068904168183
57	0xbf8426abe8059beb	-0.00983938505005529
58	0xbf064ed5a5b8dc3c	-4.254903316474503e-05
59	0x3fc09517e118b625	0.12954996577302427
60	0x3fb6b55ef022a0e3	0.08870499956777027
61	0x3fb1458b55dd4fc5	0.06746741148282272
62	0xbf80241b93009e84	-0.00788136999479084
63	0x3fba8dbb756906c9	0.10372516266309185
64	0x3fb34e910658b456	0.07541757969802751
65	0xbfa6c34a0c28e3e6	-0.044458688721029024
66	0x3fc164344b6e01b6	0.13587049182025418
67	0x3fc1590e75b6bcf1	0.1355302881979479
68	0xbf6e91beedaca180	-0.0037316063948262257
69	0x3faff787d3060ef4	0.06243538332912904
70	0x3fa8f8bc531390c7	0.048772702351727974
71	0x3fae86c0b2cbfa2c	0.05962183172777133
72	0x3f949ca361fbbc54	0.020128777366093267
73	0xbfc0717948898bd7	-0.1284629444299685
74	0xbfba534801e88b10	-0.10283327147093879
75	0x3fc05ae808f9e607	0.12777424276627888
76	0xbfb86c8a9c62c896	-0.09540621107115252
77	0x3fa421f3e99a0694	0.03932153917868422
78	0x3fc487a38f700d12	0.16038937095445555
79	0xbf394fc4f6e96280	-0.0003862243528707579
80	0xbfbb650265e49555	-0.10701003062839239
81	0xbfb783f37cb85ef7	-0.09185716433455214
82	0xbf73cf11ce48933c	-0.004836148790251123
83	0x3fa018e5ca9d6df3	0.031439953788062434
84	0xbf927679cc931972	-0.018030074225657562
85	0x3f5ada4b8ed736af	0.0016389596815885967
86	0x3fa939fa41d298f8	0.04927045873164276
87	0xbf763566eda3488e	-0.005422021926465471
88	0xbfbc8b8741812ac3	-0.11150403355820075
89	0x3f96b37f8c881b61	0.02216910643803816
90	0xbf92fed6dcee0e8a	-0.018550259813777482
91	0xbfa817be19a67556	-0.04705614150155195
92	0xbfa0602cb36bf625	-0.03198375406462287
93	0x3fb3787e77933cd3	0.0760573427135001
94	0x3f6c892ea039e0b7	0.003483382288148897
95	0x3f9a8f7230154af3	0.025937828240169613
96	0xbfb0a3aec8d51bca	-0.06499760058532825
97	0xbfbc0499062499b3	-0.10944515609717236
98	0x3fb92eadd277022d	0.09836851490309391
99	0x3faca281a32b87e3	0.05592732540914349
100	0xbfb8271a649c4050	-0.09434666591937568
101	0xbfa833d9d6db726b	-0.04727059123772367
102	0xbf946d0b7e659628	-0.01994722327198964
103	0xbfb280d0c5b44c89	-0.07227806879773103
104	0xbfb7d3f19898d9c5	-0.09307775474085307
105	0x3fb0e5a95b988987	0.0660043572065999
106	0x3fc0673fdc58f48c	0.12815092333940858
107	0xbfab751ca9178d6c	-0.0536278683100829
108	0xbfb8eee2015cd8ff	-0.09739506276386932
109	0x3fa4b0ce70d851ac	0.040411425852798416
110	0x3f6df1f84722b3aa	0.003655419271203238
111	0x3f9937e40252060e	0.024627268449426913
112	0xbfbc8340df4e54d3	-0.1113777680569286
113	0xbf83a276d8dcf4a4	-0.009587219708573187
114	0x3fa87d41f312e608	0.047830639764878724
115	0xbfaf730a327c4519	-0.06142455927159513
116	0x3f83c93917a3fcd6	0.009661146196320674
117	0xbf50711cf7c86d28	-0.0010035307778995615
118	0x3f92dce61bf6fd86	0.018420787293278028
119	0x3fb30049737311e9	0.07422312801924814
120	0xbfc2cbc1bcb86a0b	-0.14684316363202785
121	0xbfb6e30e026d221d	-0.08940208014713176
122	0xbfb4110e4f163426	-0.07838525229290436
123	0x3fc602260f7d4eaf	0.171940572322105
124	0x3fb18217f7066eda	0.06839132099997461
125	0x3fade233290dcf80	0.05836639286181278
126	0x3fab960128ead6de	0.05387881874541532
127	0xbfb077ef9d367fb3	-0.06433007801251626
128	0x3fc0896c1106da28	0.1291937907351024
129	0x3fc58241730ebb17	0.16803758733791405
130	0x3f74b91b1a20b580	0.005059343211582301
131	0xbf799de629bb6bc5	-0.006254099916726601
132	0x3fa54dd9609c5035	0.04160956672981834
133	0x3f750f13905fb333	0.005141331121177472
134	0x3f7255ce39f746ef	0.004476361820211257
135	0x3f907733d8acf967	0.016079721546014804
136	0xbfbc6a428b8b86eb	-0.11099639803753873
137	0x3f92e7820d1505ef	0.018461257980794284
138	0x3fb0f0c8929addb4	0.06617406443807888
139	0xbf8887a6cef0cea5	-0.01197748488457446
140	0x3fb1216d5633a205	0.06691630701573821
141	0x3fb5c6fa9ece034e	0.0850674283701782
142	0xbfbfe0d7ce837009	-0.12452458183128114
143	0xbfc1419d36e91ba9	-0.13481488400631506
144	0xbfb658ecd79747d8	-0.08729439032984432
145	0x3fbfa2b0025b9276	0.12357616479455111
146	0x3fb95ef18dd6adcd	0.09910497391563595
147	0x3fa90c59f80bb42f	0.04892235901738961
148	0xbf43a7f2fd56d541	-0.0005998550865828138
149	0x3fc1118a2232af86	0.13334776563476342
150	0x3faf48af916f9301	0.0611014237436276
151	0xbfb0c326d666b027	-0.06547777876284099
152	0x3f80ef812bd8c19c	0.008269318724246237
153	0x3fc2eecb785e83a7	0.14791243913080374
154	0xbfb1c81ca5c7ce17	-0.06945971534133154
155	0xbfc336917d327987	-0.15010279286520875
156	0x3fa7e0642ead3beb	0.0466338450411213
157	0xbfc1bb2513a0d5ed	-0.13852370699321118
158	0xbfc2e70991f5be95	-0.1476757013983742
159	0x3fa47874cf5860ee	0.03998150855130854
160	0x3f9380272c0414fd	0.019043552457351776
161	0xbfadb19095b37511	-0.05799533679394576
162	0xbf9141d513434952	-0.01685269289084463
163	0xbfb564d204e30eb0	-0.08356964701948288
164	0xbfa03f34f497bfef	-0.03173223005057923
165	0x3f907317dd94545c	0.016064045809873626
166	0x3f4bed5d93fc4cdd	0.0008522707866823982
167	0x3fbe88e838617819	0.1192765367172516
168	0xbf819ca71ee28e83	-0.008599572782549863
169	0x3fb5ed5678f83825	0.08565273717269457
170	0x3f97957888cce5af	0.0230311234947515
171	0x3fb82d313ea1a0c1	0.09443958071790616
172	0xbfaa6d88c75dc4d5	-0.05161693032904117
173	0xbfb80f6c88539b6c	-0.09398535087858101
174	0xbfb784017308840c	-0.09185799654416388
175	0xbf94dd696fcdf861	-0.02037586922551105
176	0x3f8f92706d3e1c8e	0.015416029294796265
177	0xbfb00231b07ddf20	-0.06253347929839181
178	0x3f9e15630d5007c1	0.02937845963243269
179	0xbfa8cf9c3aa97431	-0.048458940659408596
180	0x3fae68b4915b3486	0.05939258837097676
181	0xbf969cf6b7330c59	-0.022083144122700158
182	0x3f929409adb7404b	0.01814284441735507
183	0x3fb401c410b83ff4	0.07815194519230301
184	0xbfb6b049fc3a3307	-0.08862745674032278
185	0xbfadbaa1f5c5d622	-0.05806451916843637
186	0xbf615e9050e9b833	-0.0021202868149919007
187	0xbfa4effee2955a2e	-0.040893521460635504
188	0x3faf9cbe26c38da2	0.061742727500838215
189	0x3fa5c47c9b18ce4c	0.04251469987175635
190	0x3fb2c42560e5e1f2	0.07330545058892549
191	0x3fc137734d43c33e	0.13450471184435203
192	0xbfbb151ee08bd1e8	-0.10579102499088544
193	0x3fa57fbb89548f56	0.04199014712710773
194	0xbfb52d7f302def4a	-0.08272547651534726
195	0x3fc0190e6db3fe00	0.1257646594676629
196	0x3fa71203d7a45112	0.04505931861254643
197	0xbfb1f25e47ffa96f	-0.07010449655323268
198	0x3fadeb66b1ef72a8	0.058436593266127546
199	0xbfa135a73d224f07	-0.03361246701493142
200	0xbfc02d7d83a2283f	-0.12638825347340973
201	0x3fad4473f0c7b70b	0.057162879125696696
202	0x3fb3bb88735b26fe	0.07708027664480352
203	0xbfc05585f34676d9	-0.1276099622600018
204	0x3fb412f0fd0aa2d0	0.07841402223369731
205	0xbfa7bfb653cc26aa	-0.04638452313345216
206	0x3fc25fb8f8c115f8	0.14354622026637265
207	0x3fbd0bb3fac49c72	0.11345982429757998
208	0xbfbcfdcfca6e813e	-0.1132478589265746
209	0x3face853c5772268	0.05646001611200263
210	0x3f96589cf255faed	0.02182240704632481
211	0xbfb650911b6a0152	-0.08716685218133094
212	0xbfb328c9c6de45a2	-0.0748411283987225
213	0x3f998aebcd3c7589	0.024944004441854104
214	0x3fb15a9b83f5b29a	0.06778881045984023
215	0x3f6a13df6d39db5a	0.003183304195597908
216	0x3fb61f1fa9d45511	0.08641240974641941
217	0x3f9e6191d36c5ee7	0.029669073609595833
218	0x3fb73266fd6431df	0.09061282812417158
219	0xbfa2280a34747445	-0.03546172991102784
220	0x3fa2fb424939f610	0.037073203505297525
221	0xbfb5c59bc99924ee	-0.08504651710349595
222	0x3f9d2aae5bae3460	0.02848312792371066
223	0x3fb25a587069ed8e	0.07169106239773823
224	0x3f808a11b2178f08	0.00807584595435841
225	0x3fa83e2aa73765cd	0.04734929362502847
226	0xbfc00ad1ded2843c	-0.12533019428249925
227	0xbfbafcb07cb1b591	-0.1054182342938559
228	0xbfa9a341f148e2c4	-0.050073681548786136
229	0x3fbd495465bf6362	0.11440017208168521
230	0x3f88faab073a8bb1	0.012196861417867884
231	0xbf9c75cb424af788	-0.0277930983745516
232	0x3f965326479926c7	0.02180156528473878
233	0xbfa7857a271f5ba8	-0.04594022491044508
234	0x3fb6c13392b40d97	0.08888552028297735
235	0x3fba7f83b867dd1e	0.10350821735470503
236	0x3f92c4cbb8401ca3	0.01832884132457181
237	0xbfa597706c2539af	-0.04217101402410905
238	0x3fabe4ebe53bcf4b	0.05448090718519313
239	0xbfb2453ca45b3aa7	-0.07136897099119698
240	0x3fb62d8780ac1319	0.0866322220936805
241	0xbf58c3fb31b453f4	-0.001511569315714609
242	0x3fb9553ec5d03b8a	0.0989569886153118
243	0xbfb296c4ad9c6de7	-0.07261304129172395
244	0x3faa7dd5aabc0009	0.051741292087172104
245	0x3fb0be9869be7826	0.06540825444832929
246	0xbfa19653467ffa89	-0.03435001597971616
247	0x3fb9b27ed2dbd315	0.10037987373273112
248	0xbf9e3bbdf68e9051	-0.029524772809637338
249	0x3faa0571aa04baf4	0.050822784427841855
250	0x3fbb597d2a43ce77	0.10683424264771611
251	0xbfaaf92ed3f80d75	-0.05268236482154524
252	0x3fb6ae089de4695b	0.08859304289618335
253	0x3fab7cbec73458a8	0.05368610555358205
254	0xbfb7100c103998cf	-0.09008860965841169
255	0x3f6daed8352af295	0.003623411446225975

lstm.bias_ih_l0 f8 [256]
0	0x3fc12a9daf00f4a3	0.134113035632173
1	0xbfb55b8c81cc38a7	-0.08342817467584727
2	0x3f8a264f8f8bb608	0.012768384521645096
3	0x3fb0dd13848acd1a	0.06587335573094713
4	0xbf66c00f9d3093d2	-0.0027771286927582373
5	0x3f5e24ef28d9983a	0.0018398604910543474
6	0x3fad58502644a4b9	0.05731440035953867
7	0x3fc3a6613ae7ab5f	0.1535150086995953
8	0xbfa0b67882ed7272	-0.03264214132534428
9	0x3faa6f434629f2f4	0.051630117716717466
10	0x3fb9a221eb7869a4	0.10013019560611852
11	0x3fb7c1b4c3a542b4	0.09279947067740119
12	0xbfb2cc7831c2134c	-0.07343245711133511
13	0x3fb84a0140f7bb19	0.09487922512174086
14	0x3fade11e780b9f9f	0.058358146814327265
15	0x3fb8bef534edba79	0.09666378538325117
16	0xbfa89308723b1c17	-0.04799677271289953
17	0x3f9374c3b254d411	0.019000108489496684
18	0x3fb41c84efc4c408	0.07856016973234159
19	0x3faf9b137a986205	0.061730011668434094
20	0x3fb2a2e122fc618c	0.07279784301898057
21	0x3fc01190e4048f65	0.12553607114488866
22	0x3fa2fb8a00a7cefb	0.03707534082414373
23	0xbfa1f9f5a42220fd	-0.035110164914899024
24	0x3fc07fd6116412ac	0.12890125130811236
25	0xbfbc06adbf1c1ffb	-0.10947690883415355
26	0xbfc18343fafffd85	-0.1368184066377404
27	0xbfc21aa97302e918	-0.14143865695752633
28	0x3fa2fc829aefe4c3	0.03708274976083594
29	0x3f888fd91c7b0fd7	0.011993118459379488
30	0x3fb3ef89982fe108	0.07787380185607529
31	0x3fa39834730f7cab	0.038270606084318835
32	0xbfb93abaf53ed506	-0.0985524033302064
33	0x3f90fe5954a6f1d7	0.016595264236217346
34	0xbfc1546ea23704c4	-0.1353891651215574
35	0x3fc87da4c73c897b	0.19133434036582372
36	0xbfb949fedd351a00	-0.09878533268520329
37	0x3f9c5b132624fa66	0.027691172793533524
38	0x3fbd99d24cb2e452	0.11562837955979546
39	0xbfb7795cc006cdc6	-0.09169559181355344
40	0x3fb067aad0773a14	0.0640818366002594
41	0x3fc598c3eec8357d	0.16872452887802672
42	0x3fc04f359c2862c2	0.1274172794808433
43	0xbfaa594ed62370b1	-0.0514626156234227
44	0xbfae62eda051626c	-0.059348512477929244
45	0xbfb1f697c35f092c	-0.07016895789914618
46	0x3fc1d94e15e06b55	0.13944412296481326
47	0xbfb8588b7b09a748	-0.0951010871300727
48	0x3f7cabe016f99a1c	0.00699985060746269
49	0xbfa66bf66470cc41	-0.04379243827897784
50	0xbfc114123c660fd7	-0.13342502545503862
51	0xbfad8cd1a7979be9	-0.057714988430056575
52	0x3f9d134acaa6a383	0.028393906229811982
53	0xbfc4925229e0d01d	-0.1607153610690383
54	0x3fb27c70f34eb924	0.07221132221340959
55	0x3fc58bf2a6baf1ac	0.1683333696472692
56	0xbfb839951de076f3	-0.0946286390248721
57	0x3fa561bf780a7e86	0.04176138248771814
58	0x3fbe5ab3aba6b29c	0.11857150021269053
59	0xbf8ce8342d0d1182	-0.014114768624161615
60	0xbf76e66bbafb9808	-0.005590840169793061
61	0xbfb814d76ebe17db	-0.09406801656413626
62	0xbfb1527c77c7d1d2	-0.06766488956765862
63	0xbf61d18e2e1d171d	-0.00217511910969649
64	0x3f941ad8cad04e4e	0.0196336625850349
65	0x3fa8f2a6a89e52a8	0.04872628029184983
66	0x3f0fa05896cf2ddc	6.032247879480718e-05
67	0x3fc7e804d6a98367	0.18676815492201657
68	0xbfb554e8410ca791	-0.08332683170433898
69	0x3fb6029de89e6378	0.08597742966811761
70	0x3fb6a9ecbdc8d432	0.08853034623537395
71	0xbfa2ba0dddd74160	-0.036575730638676474
72	0xbfb0ea8079e5dfa5	-0.06607821441673296
73	0x3fa39ce1fec2fb04	0.038306295727570855
74	0x3fb622f5421fe2df	0.0864709173619178
75	0xbfa28def3f99ac6d	-0.03623912478800482
76	0xbfc05499f846146f	-0.12758183119527497
77	0xbfc2065e161641b1	-0.14081932142700063
78	0xbfc2a2a88a955260	-0.1455889393497669
79	0xbfb17d4e2b733301	-0.06831825791159575
80	0xbfa36432f1d1b083	-0.03787383272069269
81	0x3fbf91822feb6d2b	0.12331403417504265
82	0x3fbd1c590955a643	0.11371380308050853
83	0x3fb496a6dd147c95	0.08042376420461246
84	0x3fc568caa00e6a41	0.16726048293351606
85	0x3fc43ba10f6917b9	0.15806973698107443
86	0x3f97105a161882da	0.022523315046899174
87	0x3fa04e8d1bc4e271	0.031849298133640576
88	0x3f9282fbe20152ca	0.018077788991223177
89	0x3fa37003558f49d1	0.037963966554929514
90	0x3fa78b28ea01c2ff	0.045983580174725695
91	0xbfae172e805b70d6	-0.058770611923792224
92	0xbfa8669abcffe0df	-0.047657809802275734
93	0xbf9be9e5052ab51f	-0.027259424629552883
94	0x3fb17a187c066527	0.06826928165391576
95	0xbfc07a45ebcb7325	-0.12873147977270452
96	0xbface8ca59d72b10	-0.05646355005918313
97	0xbf83f16adb5b9142	-0.009737810916199966
98	0x3f8648e0019d5afe	0.010881185578609284
99	0xbfa1bd1ef8e88b50	-0.03464600361282655
100	0xbfb76ce585653fc5	-0.09150537974096469
101	0xbfb933ea0c184af6	-0.09844839854512685
102	0x3fb8dab0c55b2c3f	0.09708695238366348
103	0xbfc3fe2f02efd3cc	-0.15619456904792484
104	0x3fc5e28a968d0f4c	0.1709759936439873
105	0x3fb7e52e9ed82c3e	0.0933407914928219
106	0xbfb6160e0b417af8	-0.08627403044509296
107	0x3fa4e56731c6e781	0.04081270678166416
108	0x3f95fc768374001d	0.0214708821995374
109	0xbfb800ad4dcf6b86	-0.09376032972015311
110	0x3fa39f1d8b4899dc	0.038323329212562846
111	0xbf93fb165e8a1d87	-0.01951250984214206
112	0xbfbb0677d5e0383e	-0.105567445483957
113	0x3fb8853337b2a5c7	0.09578247175036046
114	0xbfac0a1cddf159b3	-0.05476465424787893
115	0xbfbf50c189157327	-0.12232598873874832
116	0x3f9da484b253f977	0.028947900184897315
117	0xbfb853cb36158268	-0.09502859182749435
118	0x3fa71c5dbc51d0c0	0.04513829158614291
119	0x3fc06e9a133d443f	0.12837530078334855
120	0xbfc1a2e87ce30c25	-0.1377840623664223
121	0xbfa4e9ef9d8ba5e3	-0.04084729002154199
122	0xbfb29aa0dd862129	-0.07267194183635141
123	0xbfc75de165344549	-0.1825525039826437
124	0x3fb513dad2202dc7	0.08233420972845017
125	0x3f99fd13bfb774f8	0.025379475189642314
126	0x3fbc3265c2260417	0.11014400472596751
127	0x3fad131be7f3f058	0.0567864151616681
128	0x3fab896381f3ecb2	0.05378256760919821
129	0xbf977fb7f51877de	-0.022948145231673205
130	0xbfa7fcc44b3afba3	-0.04685033243503447
131	0x3fc1cf315479e5f0	0.13913551926434264
132	0xbfb15baa1e3a55b3	-0.06780493963227378
133	0x3fb47a1e43f65a85	0.07998837622867867
134	0xbf8d9d9c99f04608	-0.014460776756126684
135	0x3faba475ce54c517	0.053989106594949536
136	0x3fa89c217b84a14b	0.04806618340291154
137	0xbfb257e1a2a913d8	-0.07165346356585134
138	0xbf8efbf27f0611f1	-0.01512898874421695
139	0x3fc6d01abb37bf6a	0.17822584287159354
140	0x3fbd3f66a81ee1e5	0.1142486725283401
141	0xbf9777b9b35d45e0	-0.022917653629809354
142	0xbfb13381d5cff735	-0.06719218702343428
143	0xbf917d806edb1c5d	-0.017080313459498665
144	0xbfa3f17aac7a4b7f	-0.03895171504441119
145	0x3fc4d90432402315	0.16287281469001216
146	0xbfc3c4c4dc4ef25d	-0.15444241292233843
147	0xbf8e0d647079f6db	-0.014673981363781
148	0x3fc331f19180c32c	0.14996165852201082
149	0x3fa9d920438f5a78	0.050484665152613795
150	0xbf015daa68066661	-3.312279023077732e-05
151	0xbf9de9ff5781efd0	-0.029212941852605756
152	0xbfc0f4d29821e37e	-0.13247139385546441
153	0x3fc4b9a4647ec4e6	0.16191534907333177
154	0x3f8059cf36818905	0.007983797884837171
155	0xbfa9a8e23b7e3d93	-0.05011660553202115
156	0x3fb719fa9905d5dc	0.09024015651615208
157	0x3f91ff977c6ca952	0.017576567620531343
158	0xbfb371b301fec7c4	-0.0759536628600293
159	0xbf9452c509d9a63a	-0.019846991277893113
160	0x3f976d439bae2fb5	0.022877746941545946
161	0xbf8bc557a92a2968	-0.013559994554516577
162	0xbfb875be0cee6e3c	-0.09554660621363892
163	0xbfb133f60713500e	-0.06719911263218156
164	0xbfc781c2b6a914bb	-0.18364747923820865
165	0xbfb7747ad6ecb0a0	-0.09162109133893859
166	0xbfbee127a7b77d91	-0.12062309116980986
167	0xbfa55fdab20fa8bd	-0.0417469351157975
168	0xbfc4dea7c42b6d08	-0.16304490164370855
169	0xbf90a0caf6b57d20	-0.01623837595741151
170	0x3fa593a23b8afb34	0.042141980904025905
171	0x3f9310f51d010362	0.018619375128995037
172	0x3fb5cd297ae38490	0.08516177416051307
173	0x3f884725073a6ba3	0.011854447634780224
174	0xbfb0a4bf3d9f0756	-0.06501384024070708
175	0x3fb0fca3c822a56c	0.06635497699848764
176	0x3fba12c3d04aca84	0.10184882960565217
177	0xbfb2500e189ab9f2	-0.0715340433186851
178	0x3fbf84910fd7a7d8	0.12311655651833975
179	0x3fc0592d02d80161	0.12772143019538887
180	0x3f72e1802e0afe81	0.004609585478362655
181	0xbfb1715928c9e7c7	-0.06813580747430513
182	0x3fc7343f381ecbfb	0.18128195038079284
183	0xbf992a5a44f654a4	-0.02457562490379374
184	0xbfa9bce0539c9309	-0.05026913662576333
185	0xbfc27b7590daa3f6	-0.14439267704918252
186	0x3fa00023323261e2	0.0312510489249609
187	0xbf99c313bd5fa012	-0.02515822261185014
188	0xbfa4c7109cdff82f	-0.04058124461151668
189	0xbf8da01ac84cce72	-0.014465531575843491
190	0x3f83812548ad08d7	0.00952366951026244
191	0xbf8ffbcb6ad5ea5f	-0.01561697883402252
192	0x3fbe7e7e55ea8bb1	0.11911763761103945
193	0x3fb1b9e281ad4fea	0.06924262681906126
194	0x3fbafe5736c785d7	0.10544343078029016
195	0x3fb606a12c990c09	0.0860386594659276
196	0x3f9197a319d65e45	0.01718001218031719
197	0x3fc65137d92dbd6d	0.1743535814707501
198	0x3f83d030675ac42a	0.009674432901507119
199	0x3fa3299fe7cb0702	0.037426945729306396
200	0xbfab7bad33da1099	-0.05367795236546264
201	0x3fb9a4f4c46f2bb2	0.1001732806754905
202	0xbf66722c053fa4a2	-0.002739988305610356
203	0xbfa87d683e4710a3	-0.04783178100800114
204	0xbfaf01a0602af4f3	-0.06055928396151868
205	0x3fb56c4b8816570b	0.08368370125239381
206	0xbfc118c3a53c6f9d	-0.13356824463050723
207	0x3fb05494c271627a	0.06379060504094439
208	0x3fc1f60c44143841	0.14032128643197164
209	0x3fc0ecaaa6219564	0.13222249137758546
210	0x3fac4f855e00b0af	0.05529419682020042
211	0xbfbd9a8c247fc086	-0.11563945666398653
212	0x3fbd8b75e133bca1	0.11540924785707542
213	0x3fb503c259a4cd58	0.08208861054008787
214	0xbfac7a3be36a2c0c	-0.05562007094439289
215	0x3f72e315ead76f2c	0.00461109696831467
216	0x3faf9ce699f6dc1d	0.06174393300482726
217	0x3fa55ea7ee06da11	0.04173779278373869
218	0x3f91409922af89e9	0.016847985021636012
219	0xbf913eeb16c2a213	-0.016841576828172288
220	0x3fc00ddbf9c3ae09	0.1254229516556367
221	0x3fbfb51938cec9c8	0.12385709416302071
222	0xbfc094331027df5d	-0.12952268875937537
223	0xbfbdf4045d3e2ef6	-0.11700465465963447
224	0x3fbb0a9e81df3fda	0.10563078566269671
225	0xbfa3679cf910da49	-0.037899880794090075
226	0xbfaf92dd267da704	-0.06166735739573251
227	0x3fb4e523ebabe654	0.08162140372942278
228	0xbf9c6ddba2bc2be7	-0.02776282482868089
229	0x3fac7317498575ed	0.055565574383518036
230	0x3fba6b3050754550	0.10319807018574534
231	0xbfae1226d75299bc	-0.058732236656669795
232	0xbfbe7205a6bd9a69	-0.1189273387986788
233	0x3f87b076babb1578	0.011567046712466875
234	0xbf9c11961d726750	-0.027410836741729228
235	0xbf827e3452079ec8	-0.009029778245305833
236	0xbfa8a18cd29c22b3	-0.048107529362885336
237	0xbf94c28771eaf898	-0.02027331955718434
238	0x3fc424fd304a84f5	0.15737881525004807
239	0xbfbdcbe20043a67b	-0.11639225489093434
240	0xbfb24879e18eb220	-0.07141839749119372
241	0x3f99af89e3077dfb	0.02508368919541047
242	0xbfb5ea7b48fcb07f	-0.08560915500555842
243	0x3fb004f99a99a2fc	0.06257591270844992
244	0xbf86379b343a91ed	-0.010848248034855035
245	0xbfc17f05baf369fd	-0.1366889155240897
246	0x3fb9739b6213b666	0.09942027229745917
247	0x3fc2c7c366dd07ea	0.1467212917578416
248	0xbfc44c2889345f4f	-0.15857416819994305
249	0xbfa3408e2dc8b380	-0.03760189350973686
250	0x3fc36ddc2077f920	0.15179015717871724
251	0xbfc504680fb4b966	-0.16419697539226802
252	0xbfa3e589e7de85bf	-0.0388606162589542
253	0x3fb697240996df34	0.08824372514834239
254	0x3fa9d7ac30a57f21	0.05047357648686402
255	0x3f9659268d35224c	0.021824457520127447

lstm.bias_hh_l0 f8 [256]
0	0xbfa1b445c3fc2da3	-0.03457849519153491
1	0xbfa77a578398715c	-0.04585526925459035
2	0xbfb731a20e0e893b	-0.09060108988936559
3	0xbfa077daf6ea65b5	-0.032164423600259985
4	0x3f7d92e43167b5ff	0.007220164660322491
5	0x3fb2fa02bca36656	0.07412736039568676
6	0xbf7fcb76cddada1c	-0.007762397841068604
7	0x3fc2bfc73ae7ab5e	0.14647760750025446
8	0xbfa301a302ed7272	-0.037121862513889506
9	0x3fc4e2e5d18a7cca	0.1631743691586734
10	0x3fc4191b95bc34de	0.15701622782982033
11	0x3fa10bbc874a854f	0.03329266692640919
12	0x3fa71b519c7bd950	0.04513030085756731
13	0xbfb7971fbf0844e8	-0.09214971937059924
14	0x3f9a5f93f0173f43	0.025755225686054272
15	0x3fb6db62b4edba7a	0.08928505818560409
16	0xbf9b8949e476382e	-0.026890902108384455
17	0xbf87741c9b5657b7	-0.011451934328572706
18	0x3fbfa2e8afc4c40e	0.12357954303003302
19	0xbfbbc2b102b3cefd	-0.10843950572944645
20	0x3f9959d98bf18615	0.0247568122544007
21	0xbfab94026fedc298	-0.05386359802549129
22	0x3fa0889180a7cefd	0.0322919339704679
23	0xbf917a41484441e6	-0.017067928348355375
24	0x3fbd406622c82551	0.11426390027204049
25	0xbfb2b49c7f1c1ffd	-0.0730684099509062
26	0x3fb5cbd5ca0004ea	0.08514152700083213
27	0x3f8086b4cfd16e11	0.008069431869606654
28	0xbf80419794406d13	-0.007937607013494252
29	0x3f8105a51c7b0fd1	0.008311548167860313
30	0xbf9d4c2c9f407c0a	-0.0286108944129602
31	0xbfb12a6b867841b2	-0.06705352814629498
32	0xbfc442731a9f6a8a	-0.15827788162171813
33	0x3fc109804a94de3e	0.13310245172191232
34	0x3fa8eaabf723ecd6	0.04866540328836215
35	0x3fc974e1273c897b	0.19887937942355535
36	0xbf9d4c6174d46829	-0.0286116817052077
37	0xbfa491e16ced82bf	-0.04017548041043061
38	0x3f9771cc32cb914a	0.022895041084568114
39	0xbfb2cb874006cdc6	-0.0734180957140814
40	0x3fa2e0c720ee742a	0.03687116887088167
41	0x3fc8bc016ec8357c	0.19323747548370906
42	0xbfb8df6647af3a76	-0.09715880632504956
43	0xbf9ae389ac46e15e	-0.026258612766214433
44	0xbf98548740a2c4d2	-0.023759949989373315
45	0xbfab61f706be1260	-0.05348178822808758
46	0x3fb9b44d2bc0d68c	0.10040743177600059
47	0xbfc34f555d84d399	-0.15085856500959663
48	0x3fa8939d82df3351	0.04800121519620027
49	0x3fbdac3b4dc799f0	0.11590929650228765
50	0x3f9461a01ccf812a	0.019903661497552218
51	0xbfb82b5713cbcdfb	-0.0944113181429244
52	0x3fa0a8a0e55351ba	0.032536533349829935
53	0xbfab5ea627834060	-0.053456489871337665
54	0x3f84426b9a75c977	0.009892311717270215
55	0x3f8e9d266baf1a57	0.014948177491430998
56	0xbf801c44ef03b7c9	-0.007866419357437497
57	0xbf7a77703fac0bdd	-0.006461561652716133
58	0x3f947638ae9acaab	0.019982228905699156
59	0xbfbadd85c5a1a23a	-0.10494266581520942
60	0x3faa3c2888a08d01	0.051240221670264326
61	0xbfba128f2ebe17d9	-0.1018456925504262
62	0xbf9f969fdf1f4736	-0.030848024361893787
63	0x3fc75a8267478ba4	0.18244962733214465
64	0x3f85c78395a09c9e	0.010634449008718069
65	0xbfa0a5f7d761ad5a	-0.03251623634499863
66	0x3f97cac22c4b6788	0.023234399751209917
67	0x3f7e39c6d5307132	0.007379318895825814
68	0x3fbea1357ef3586d	0.11964735364321806
69	0x3fc2f011d44f31b4	0.1479513441721686
70	0xbfb2be1882372bce	-0.07321313075151112
71	0xbfb37dbbeeeba0b2	-0.07613730032938085
72	0x3fb3d681c61a205a	0.07749186598278027
73	0x3f91639bfd85f604	0.016981541966279337
74	0xbf8c5be1ef00e924	-0.01384712706213926
75	0xbfb9e3755fccd638	-0.10112699116583534
76	0x3f9218723dcf5cad	0.017671380064567078
77	0x3fb32b0153d37c96	0.0748749570516217
78	0x3f9420a1ab556d44	0.019655729372386035
79	0x3fc328426a466670	0.14966612042626393
80	0xbfa7490df1d1b081	-0.04547923638242058
81	0xbf95cd6140524b3d	-0.021291274596090693
82	0x3fc0a85e44aad321	0.13013819077391367
83	0xbfbd921ae2eb836c	-0.11551063575781279
84	0x3f56855007351e87	0.0013745576405471986
85	0xbf194184b7420a00	-9.634373219750275e-05
86	0x3facf5ea0b0c416f	0.05656367668973671
87	0xbfa33233643b1d91	-0.03749237631341907
88	0xbf9d3abd1dfead38	-0.028544383006800816
89	0xbfa70c1daa70b62c	-0.04501431184358426
90	0xbfbb5fe8caff1e82	-0.10693221050234494
91	0xbfbfc737002db85c	-0.12413352732048238
92	0xbf80a3dcf3ff8350	-0.00812504405615902
93	0xbf7f140c14aad30f	-0.007587477865560257
94	0xbf52d560fe66b913	-0.0011495063023221938
95	0xbfa1681eaf2dcc83	-0.03399749649442987
96	0x3fc237bc298a353e	0.14232589748682217
97	0x3fc19710b24a46ed	0.13742264466832613
98	0xbf862cb9fe62a508	-0.010827496600841716
99	0x3fba6985838bba4f	0.10317263089721361
100	0xbf9bf0471594ff56	-0.02728377408243373
101	0x3faf1ccbe7cf6a08	0.060766574904580095
102	0x3fbcd8fdc55b2c3f	0.11268602436318619
103	0xbfb9eb3d85dfa78c	-0.10124573248290697
104	0x3f981428b468799c	0.02351440049289409
105	0x3fb1269f5ed82c3d	0.06699558320558281
106	0xbfb0b86a8b417af8	-0.06531396770285969
107	0xbfaf88494e391882	-0.06158665733214354
108	0x3fb813e660dd000d	0.09405364861322614
109	0x3f8e5c4b9184a3ac	0.014824476602898283
110	0xbfa08aeaf4b76623	-0.03230985867748994
111	0xbfb258c857a28760	-0.07166721477054017
112	0xbfc49ceb6af01c24	-0.1610388061673983
113	0xbfae509e909ab45f	-0.059208827163595094
114	0xbfa435a55df159b4	-0.039471786229728606
115	0x3f95aa3ddbaa336c	0.02115723279216601
116	0x3fa146a6d929fcb4	0.033742155083922226
117	0xbfc4243f3b0ac13b	-0.15735617049132053
118	0x3fb5c8cc9e28e868	0.08509520398448134
119	0x3fbf0f6ae67a888e	0.12132900359077523
120	0x3f95592718e79ee8	0.020847903151575503
121	0x3fbd8219f13a2cf9	0.11526643885933997
122	0x3fbdb66be279ded7	0.11606478003693198
123	0x3fa32a22eb2eeadf	0.037430850228209904
124	0x3fa36bfd24405b94	0.03793326442262593
125	0xbfb75225d01222bc	-0.09109722452024988
126	0x3fb26e42c2260417	0.07199494590715037
127	0x3f84638d9fcfc149	0.009955507697640658
128	0xbfa9e55c7e0c134e	-0.05057801283513773
129	0xbfc27260dea30f06	-0.14411555167145468
130	0x3fbd246a1a62823a	0.11383689064178606
131	0x3fb544c9a8f3cbce	0.08308086752712926
132	0x3fc0129850e2d521	0.12556747388377068
133	0x3fbf3eec03f65a85	0.12205386254059121
134	0xbfbd2e9b533e08c2	-0.1139924123981784
135	0x3fa6a609ce54c516	0.04423552173319416
136	0x3f8bee31ee12851a	0.013637914731875745
137	0xbfc65f82b1548a25	-0.17478974970534114
138	0x3fafab70e03e7b7f	0.06185486543039697
139	0xbfaa0b0e93210244	-0.05086560770042017
140	0xbfb1301e97e11e1c	-0.06714049537651373
141	0xbfc06f9fb66ba8c3	-0.12840649039509885
142	0x3fb128e66a3008cc	0.06703033535453357
143	0xbfbf0fb19bb6c729	-0.1213332181130481
144	0x3fb7cdf2e9c2da35	0.09298628050860532
145	0x3f9a4af592011999	0.025676571880717345
146	0xbfc5fa9f9c4ef25c	-0.17171092159505263
147	0x3f7025731f0c123c	0.003941964809886896
148	0x3fc611033180c32c	0.17239417950761415
149	0x3f87cdc70e3d69ec	0.011622958299700913
150	0xbfc64bc8daa68028	-0.17418776203430864
151	0x3fa88d13d43f0812	0.04795133558174326
152	0xbfae430be0878e18	-0.059105273397815405
153	0xbf7ffbf7702763ce	-0.007808653407175249
154	0x3fb2cbd526d03127	0.07342273900593864
155	0xbf7de79ddbf1ece6	-0.007300964963288003
156	0xbfa9a3accdf454f5	-0.050076866284294676
157	0x3f640213e3654a75	0.002442396969095479
158	0xbf9c64c907fb1ef0	-0.02772821532451436
159	0xbfb64d288276699b	-0.08711484131928275
160	0xbfb9353a19147416	-0.09846842872907788
161	0xbfb1d219b5254530	-0.069612127995488
162	0xbfc182a5e677371f	-0.13679956200797336
163	0xbfc2b954a389a830	-0.1462808416866337
164	0xbfc76d7956a914bb	-0.18302838069408786
165	0xbfac33f0add96142	-0.05508377191717041
166	0xbfafd5294f6efb90	-0.06217316717765364
167	0xbf991d8f641f517e	-0.0245268254146409
168	0xbfb628d94856da06	-0.08656080261321372
169	0xbfbef88d7dad5f52	-0.12098011320392502
170	0x3fb6209c1dc57d90	0.08643508650629017
171	0x3fc2101ac3a0206e	0.14111647178674808
172	0xbfa4930e0a38f6e5	-0.04018443941866482
173	0x3fa63006c1ce9aed	0.043335162313544597
174	0xbf9100ccf67c1d3b	-0.016604616684188427
175	0xbfb2f84e37dd5a93	-0.074101341856798
176	0x3fc10329e825653f	0.13290904841668724
177	0x3fa8624dceca8c22	0.04762499951655054
178	0x3fb773bfcfd7a7d8	0.0916099436214205
179	0xbfa5fe7ef49ffa5c	-0.04295727478164643
180	0xbfaf280b7a3ea025	-0.06085239283794434
181	0xbfb1be6868c9e7c5	-0.06931164320295043
182	0xbfa7e7591f84cfe3	-0.04668692121268216
183	0x3fbeba09eec26acf	0.1200262267979426
184	0xbfa076f6d39c9309	-0.03215762456082955
185	0xbfb7c60ce1b54836	-0.09286575804188221
186	0x3f9f808f6464c38f	0.03076385545972787
187	0xbf992323bd5fa013	-0.024548109467929246
188	0x3fc6189538c801fe	0.1726252104999872
189	0x3fa1a100cdeccc6b	0.03443148149235572
190	0xbfa7dd332dd4bdcb	-0.04660949644528108
191	0x3fc80ebbc952a15e	0.18794963197911846
192	0x3fbe96f555ea8bb0	0.11949094150126771
193	0x3fbb37a201ad4fec	0.10631763974134828
194	0xbfb12a5709387a26	-0.06705230689156191
195	0x3f3a022c990c0e0b	0.00039685810865838837
196	0x3fbaaaf0c6759794	0.10417084546278793
197	0x3fb2ed29f25b7ac6	0.07393133322646425
198	0xbfbd85f13314a784	-0.11532504555785122
199	0x3fa8e4a8e7cb0704	0.04861953572755165
200	0xbfb0574599ed0856	-0.06383166320759534
201	0xbf74383bb90d4537	-0.00493644074670501
202	0x3f705a69fd602db2	0.003992475531059568
203	0xbfc15ef18f91c420	-0.13570994863724284
204	0xbfb4b155f0157a75	-0.08083092795775733
205	0x3fb7ca514816570b	0.09293087015097627
206	0x3fae3f866b0e4171	0.05907840782959085
207	0x3fb8d483c271627a	0.0969927167619832
208	0x3fb54bbc08287096	0.0831868667523302
209	0x3fb877f08c432acb	0.09558013367056188
210	0x3fc331dc57802c24	0.14995912811750245
211	0xbfb06e6b647fc087	-0.06418486789312015
212	0x3fc4fa1f7099de51	0.16388314245317528
213	0x3fc0612a8cd266a9	0.12796527744358357
214	0x3fc0e66c872574fd	0.13203198050442913
215	0x3f9bea277ab5dbc4	0.027260414948127268
216	0x3fc1d6ffa67db702	0.13937373761603317
217	0x3fb18677b7036d05	0.06845806329822686
218	0x3fb7042a88abe27e	0.08990732037262636
219	0xbfbe6fac85b0a884	-0.11889150871198423
220	0x3fc09f1c39c3ae08	0.1298556596806153
221	0x3fc6d4787c6764ee	0.17835908960731878
222	0x3f794049fb04165c	0.0061648263802048485
223	0xbfb6d9db9d3e2ef5	-0.08926174725473486
224	0xbfb417bdfe20c026	-0.07848727659507002
225	0x3fbf48ee037792cd	0.12220656952519988
226	0xbfc1064b499f69cc	-0.13300458044871133
227	0x3fc2499095d5f32b	0.14287001911352468
228	0xbfa36de4515e15f7	-0.03794778340583698
229	0xbfb181d31b3d4504	-0.06838721671126186
230	0x3f7744c107545482	0.0056808033162002464
231	0x3fa92e7e28ad6649	0.04918283697652421
232	0x3fb4ed8819426599	0.08174944512065564
233	0x3fbda26f975762b0	0.11575982518059891
234	0x3f92964de28d98b1	0.018151490166382348
235	0x3fb51949b5bf0c28	0.08241711318173428
236	0xbfa1d1a4d29c22b3	-0.03480258055612264
237	0x3fb6b080238541cd	0.08863068453980034
238	0x3faa6097412a13cd	0.05151817961181102
239	0x3f8c7ec1fde2cbe3	0.013913646278842456
240	0xbfbe77f6a18eb221	-0.11901799625656696
241	0x3fb20ec9f8c1df89	0.07053816149880111
242	0x3fc253923b81a7bc	0.14317539125050682
243	0x3f8e9d18d4cd1811	0.014948076242614435
244	0x3fab94b1b2f15b83	0.053868821233371576
245	0xbfc0664d7af369ff	-0.12812202933749003
246	0x3f84f06d109db347	0.0102242012687498
247	0x3fc28b6c26dd07ea	0.1448798360598283
248	0x3fa952b9db2e82b4	0.04945927429731026
249	0xbf839636b722ce14	-0.009563853706231952
250	0x3fa7e4c581dfe4b1	0.04666726313002679
251	0xbf82cfe4fb4b96ac	-0.009185589713023155
252	0x3f9db9433042f476	0.029027032681132124
253	0x3faa13af132dbe49	0.050931426135204357
254	0x3fc18dc36c295fc7	0.13713877469376554
255	0xbfba67c95cb2b76c	-0.10314615738999827
